models/deepar_FOODS_1_001_CA_1_validation/prediction-net-state.pt (torch, 98912 bytes, 11 tensors)

model.param_proj.proj.0.weight f4 [1, 40]
-0.39189115 0.00552062 -0.22302236 -0.06703776 -0.27594465 -0.07582157 -0.45079574 0.100958265
-0.10210965 -0.49991488 0.018704185 0.110080585 -0.36537185 0.40229455 -0.62030864 0.37973586
-0.33431622 -0.34964973 -0.5405906 0.36032963 -0.50995106 0.38735446 -0.5771955 0.3479941
0.22421019 0.64466125 -0.6151765 -0.5114107 -0.21842931 -0.2720916 0.52191806 0.20678431
0.5374746 -0.18827973 0.004957109 -0.16130972 0.3331337 0.30016544 -0.014880961 0.64308333
00000000: f5a5 c8be 51e6 b43b f95f 64be 184b 89bd
00000010: 9e48 8dbe 5748 9bbd b3ce e6be 35c3 ce3d
00000020: dd1e d1bd d8f4 ffbe 8539 993c ee71 e13d
00000030: 0512 bbbe 8df9 cd3e 8ccc 1ebf bd6c c23e
00000040: 7f2b abbe 4a05 b3be 2564 0abf 207d b83e
00000050: 278c 02bf 5353 c63e 16c3 13bf 482c b23e
00000060: 5b97 653e 8508 253f 357c 1dbf d0eb 02bf
00000070: efab 5fbe 974f 8bbe 6c9c 053f 44bf 533e
00000080: ef97 093f 67cc 40be 3f6f a23b 602e 25be
00000090: 8090 aa3e 49af 993e 46cf 73bc 1ca1 243f

model.param_proj.proj.1.weight f4 [1, 40]
-0.13846289 0.016216986 -0.18110652 0.20486869 -0.039650228 0.21788432 0.0479338 -0.11595367
0.030602492 -0.11009363 0.123972 -0.21433528 -0.08726322 0.14081739 -0.16053277 -0.08037086
-0.19111133 -0.0779328 -0.09261025 0.19268794 0.124460205 0.025209537 -0.16778138 0.13036661
-0.065942824 0.11023222 -0.12620896 -0.16993521 -0.17732793 0.08724493 0.1635623 0.14303517
0.0907978 -0.060821634 -0.20530589 -0.12773953 0.08409506 0.040538684 0.010740306 0.109319374
00000000: 37c9 0dbe 7cd9 843c fd73 39be 19c9 513e
00000010: 4768 22bd 111d 5f3e 3b56 443d 1e79 edbd
00000020: 14b2 fa3c c578 e1bd 08e5 fd3d b57a 5bbe
00000030: 0fb7 b2bd 6f32 103e b462 24be 7a99 a4bd
00000040: b0b2 43be 3b9b 9fbd 71aa bdbd fd4f 453e
00000050: fee4 fe3d 3b84 ce3c e2ce 2bbe d37e 053e
00000060: 080d 87bd 6ec1 e13d ec3c 01be 7f03 2ebe
00000070: 7495 35be 78ad b23d e07c 273e d077 123e
00000080: 32f4 b93d 1b20 79bd b53b 52be 27ce 02be
00000090: 083a ac3d e40b 263d 1cf8 2f3c d6e2 df3d

model.param_proj.proj.2.weight f4 [1, 40]
0.51864153 0.52909976 0.28070387 0.3295415 0.5696363 0.6136677 0.276726 -0.18737674
0.33924815 0.31060025 -0.036329366 -0.20460778 0.26995873 -0.2751116 0.3509423 -0.44441238
0.19274804 0.06760687 0.38312235 -0.34500507 0.18668891 -0.7395521 -0.59381753 -0.5656014
-0.5659661 -0.4080304 0.24168128 0.5792624 0.45506194 0.41889015 0.09955567 0.44428778
-0.43684828 0.10156606 -0.13020207 0.35449928 0.16777456 -0.97886115 -0.14230084 -0.21421397
00000000: b1c5 043f 1573 073f 6bb8 8f3e aab9 a83e
00000010: afd3 113f 5419 1d3f 08af 8d3e b0df 3fbe
00000020: efb1 ad3e ff06 9f3e 1ace 14bd b484 51be
00000030: 0838 8a3e 6ddb 8cbe b6ae b33e 058a e3be
00000040: be5f 453e 7875 8a3d 9d28 c43e 81a4 b0be
00000050: 612b 3f3e 4953 3dbf 6d04 18bf 41cb 10bf
00000060: 28e3 10bf 5ce9 d0be 4c7b 773e 8a4a 143f
00000070: e1fd e83e c578 d63e d8e3 cb3d b079 e33e
00000080: 94aa dfbe de01 d03d b153 05be ee80 b53e
00000090: 18cd 2b3e a596 7abf 50b7 11be e85a 5bbe

model.rnn.weight_ih_l0 f4 [160, 21]
0.06287221 0.17999938 0.38321552 0.17756571 -0.113575056 -0.02855627 -0.51091385 0.054127235
-0.041017033 0.13518108 0.5142593 0.66884774 0.2185275 -0.06580332 -0.08335869 -0.395528
-0.05182816 0.0011160556 0.037557244 -0.07460689 -0.24994792 0.21637015 -0.07518441 0.05867501
0.11778229 0.18598345 0.06309354 0.24797197 0.0090518985 0.1148829 -0.18523374 0.0030715757
0.1804717 -0.0076853586 -0.24757491 -0.045192085 1.157751 0.023577245 0.00137023 -0.022972185
-0.133207 -0.08680587 0.21097176 0.21488129 0.015657885 -0.014840951 0.09294031 -0.13132682
-0.20579419 0.075257905 0.33686918 0.017939525 0.03315196 0.108320005 0.09348205 0.16429329
0.24880397 -0.14048487 -0.1245362 -0.00020999512 0.2562175 -0.040957194 0.17461905 -0.073572166
0.48628622 0.20111953 0.148381 -0.18347612 -0.38468868 -0.51430905 0.27658978 0.19747385
0.047248952 0.12885146 0.14953981 0.099387966 -0.10201695 0.22182411 0.090369806 0.13043673
0.0010482855 -0.104720846 -0.5685152 0.016921071 0.3943598 0.3152665 0.09801875 0.14016348
0.3656138 0.24092202 0.03010561 0.16324812 0.054670025 -0.063830264 -0.387923 -0.23021984
-0.10481733 -0.026262123 0.1282962 -0.14216144 -0.1990696 0.0006532427 0.3002117 -0.32159856
0.110032625 0.5066309 0.36238545 0.21196595 0.21962434 0.09867137 0.13844112 0.27166054
0.1813505 -0.041029852 -0.076893464 -0.19489859 0.13089919 0.23323283 0.1551887 0.21008003
0.45068473 -0.3579104 0.0005238735 0.31360915 -0.4045478 0.19360024 0.77029556 0.5113474
0.15053734 0.3400493 0.22826456 0.2575533 0.4396449 0.14344834 0.14467923 0.12455292
-0.017747452 0.090076715 -0.05481059 -0.41641033 -0.46421686 0.15750194 -0.41658354 -0.00017512776
0.06915649 -0.014461212 0.6891271 0.29325348 0.16606426 0.20107347 0.22779836 0.24530096
0.27050158 0.24929348 0.41309604 0.35517976 0.052856088 0.20930502 -0.044635504 0.11378465
0.121288754 0.028287424 0.01958327 -0.7475849 0.0013805933 0.52876914 -0.67419004 0.33775228
0.45472085 0.09088404 0.3798911 0.10491224 0.22674447 0.45601344 0.54395 0.23705378
0.2336162 0.1867733 0.14534946 0.19105864 0.046992928 0.11945221 0.18901488 -0.067377694
-0.05807573 0.00035891577 0.2269584 0.16447918 0.38804772 -0.0005082707 0.006534496 0.19114351
0.0045272107 0.15117225 -0.016160866 0.05044877 0.012274705 0.017595613 -0.22247507 -0.080747426
0.1298968 0.23241945 -0.14784202 0.29252774 0.008409079 -0.07391811 0.000402687 0.119541295
-0.37805033 -0.04476283 0.09079746 0.15166007 -0.040241063 0.100438654 -0.07035819 0.17495212
0.24086498 0.09960913 0.38699898 0.4176882 0.35185575 0.18404382 -0.1422582 0.10746229
-0.12309127 0.051666435 -0.39171442 -0.0010436613 0.3030273 -0.14553656 0.19245106 0.30476528
-0.031154728 0.16866697 0.36627287 0.4926839 0.51477206 0.4689925 0.33723173 0.18541957
-0.049577266 0.01359131 0.009655076 0.13503242 0.17054959 0.13918068 0.111418806 -0.52369183
-0.0002558719 0.48178178 0.022158548 0.39350405 0.5238144 0.44039676 0.46201923 0.23010002
00000000: 25c3 803d c251 383e d334 c43e c9d3 353e
00000010: 0a9a e8bd d7ee e9bc 40cb 02bf 85b4 5d3d
00000020: 7a01 28bd e96c 0a3e 7fa6 033f 9b39 2b3f
00000030: acc5 5f3e e4c3 86bd f6b7 aabd a582 cabe
00000040: c449 54bd 9d48 923a a0d5 193d 7fcb 98bd
00000050: 59f2 7fbe 2390 5d3e 49fa 99bd 3555 703d
00000060: d737 f13d 7272 3e3e 3037 813d 5dec 7d3e
00000070: 6a4e 143c ba47 eb3d eaad 3dbe 7d4c 493b
00000080: 93cd 383e 76d5 fbbb 4784 7dbe 561b 39bd
00000090: 2f31 943f 1125 c13c 4a99 b33a 2a30 bcbc
000000a0: 6a67 08be 47c7 b1bd fb08 583e d709 5c3e
000000b0: f744 803c 7627 73bc 7d57 be3d 8a7a 06be
000000c0: b6bb 52be d120 9a3d 1e7a ac3e e9f5 923c
000000d0: 59ca 073d e1d6 dd3d 8473 bf3d 803c 283e
000000e0: 78c6 7e3e 44db 0fbe d60c ffbd 2332 5cb9
000000f0: f12e 833e bbc2 27bd 56cf 323e 01ad 96bd
00000100: 82fa f83e 47f2 4d3e 30f1 173e 2ae1 3bbe
00000110: eaf5 c4be c2a9 03bf 2d9d 8d3e 9636 4a3e
00000120: 1e88 413d a3f1 033e f720 193e eb8b cb3d
00000130: 43ee d0bd dc25 633e ce13 b93d 3591 053e
00000140: a066 893a e277 d6bd 368a 11bf 0f9e 8a3c
00000150: 87e9 c93e 9c6a a13e 0ebe c83d 0487 0f3e
00000160: bb31 bb3e 43b4 763e 0aa0 f63c 842a 273e
00000170: aded 5f3d 71b9 82bd d89d c6be c0be 6bbe
00000180: 78aa d6bd aa23 d7bc 1460 033e c592 11be
00000190: e7d8 4bbe 603e 2b3a 59b5 993e 91a8 a4be
000001a0: c958 e13d 90b2 013f 968a b93e 9a0d 593e
000001b0: 34e5 603e 3714 ca3d 82c3 0d3e 1717 8b3e
000001c0: f2b3 393e eb0e 28bd 527a 9dbd 7f93 47be
000001d0: 700a 063e 96d4 6e3e c9e9 1e3e 381f 573e
000001e0: 26c0 e63e 0840 b7be 8e54 093a 6191 a03e
000001f0: e420 cfbe 243f 463e 1732 453f aae7 023f
00000200: 7626 1a3e f11a ae3e 2fbe 693e 07de 833e
00000210: 2319 e13e 1fe4 123e cb26 143e 9a15 ff3d
00000220: 1b63 91bc 247a b83d 1281 60bd bc33 d5be
00000230: d5ad edbe 3048 213e 704a d5be 80a2 37b9
00000240: eba1 8d3d b8ee 6cbc a26a 303f 5225 963e
00000250: c00c 2a3e 34e6 4d3e f943 693e 2d30 7b3e
00000260: 2f7f 8a3e ca46 7f3e 5381 d33e 1fda b53e
00000270: a07f 583d 0e54 563e b8d3 36bd ed07 e93d
00000280: 3d66 f83d 07bb e73c 186d a03c b961 3fbf
00000290: 06f5 b43a 6a5d 073f b897 2cbf deed ac3e
000002a0: 2cd1 e83e 6921 ba3d 1681 c23e 3adc d63d
000002b0: b42f 683e 987a e93e 4f40 0b3f 3abe 723e
000002c0: 1639 6f3e 8041 3f3e 7dd6 143e e0a4 433e
000002d0: a87b 403d 5ca3 f43d 1e8d 413e 51fd 89bd
000002e0: d1e0 6dbd dc2c bc39 c867 683e 3b6d 283e
000002f0: 31ae c63e 783d 05ba 531f d63b 20bb 433e
00000300: ff58 943b e6cc 1a3e cb63 84bc 5fa3 4e3d
00000310: d81b 493c ad24 903c 81d0 63be e85e a5bd
00000320: ab03 053e 5dff 6d3e e663 17be 32c6 953e
00000330: 3cc6 093c 6162 97bd bc1f d339 11d2 f43d
00000340: d08f c1be 3b59 37bd 05f4 b93d c74c 1b3e
00000350: d0d3 24bd c8b2 cd3d f417 90bd a626 333e
00000360: 4fa5 763e dfff cb3d bb24 c63e 3adb d53e
00000370: 7026 b43e fc75 3c3e 22ac 11be 3015 dc3d
00000380: 4717 fcbd 2fa0 533d cb8e c8be 76cb 88ba
00000390: 6526 9b3e 8907 15be e411 453e 320a 9c3e
000003a0: 3338 ffbc 09b7 2c3e 1e88 bb3e 1041 fc3e
000003b0: 1ac8 033f c91f f03e a3a9 ac3e a1de 3d3e
000003c0: 8811 4bbd 16ae 5e3c 5330 1e3c f045 0a3e
000003d0: 8da4 2e3e 6185 0e3e 8b2f e43d ab10 06bf
000003e0: 8c26 86b9 1aac f63e d885 b53c 5d79 c93e
000003f0: b318 063f af7b e13e c98d ec3e 579f 6b3e

model.rnn.weight_hh_l0 f4 [160, 40]
0.1128689 0.10926399 0.056533884 0.1276068 0.16170925 -0.0309947 -0.06540952 -0.25692415
-0.14474893 0.012874526 0.16205525 0.033476967 0.15314734 -0.19793853 -0.07494635 -0.3095933
0.21147029 -0.21584173 0.08085679 0.32722917 -0.15159695 0.28337985 -0.19717978 -0.37531433
0.13648738 0.14132911 0.060559623 -0.3676617 0.06277769 0.084809646 -0.059725117 0.07954776
0.34094906 -0.11290114 0.339606 -0.012917897 0.12130283 0.2613293 -0.0061492035 0.14333633
0.29601994 0.10399226 0.119624645 0.057643667 -0.07502882 0.011856742 -0.11226681 0.16142912
0.13130903 -0.012788175 -0.0035927882 -0.08346463 0.055671662 0.022272008 -0.14028388 0.036230016
0.05126009 0.10032779 -0.20917848 -0.04113227 -0.086539716 0.19440925 -0.20261422 -0.17314756
0.0741498 -0.12535773 -0.002618186 -0.08593821 -0.08185382 -0.17728096 -0.090745956 -0.13099913
-0.19290487 0.009008149 0.20588766 -0.031373087 0.14162596 0.22995526 -0.09250508 0.16025819
0.030049153 0.09147713 -0.067688316 0.08512304 0.16328815 -0.07129244 -0.24496034 -0.1542499
-0.00081736315 -0.102988 -0.07770055 -0.0909178 0.16458191 0.17623116 0.08513027 -0.03448278
-0.0015456536 0.24056047 0.065739684 0.077702425 0.045902114 0.021937236 -0.009863473 -0.045804225
0.032824118 0.028224653 -0.024110323 0.0852129 0.08503722 0.11594987 0.17938407 -0.029642254
0.19867672 0.048797373 -0.12974395 0.013419995 -0.107998386 -0.15517813 0.08230488 -0.053779073
0.39660186 -0.352169 0.058160912 0.35172468 -0.13994814 0.05660734 0.049820844 -0.056787886
0.024313381 0.08881519 0.20817016 -0.069295324 -0.058239717 -0.16326839 -0.018726349 0.18788823
-0.12275229 -0.22333618 -0.25113857 -0.119037464 -0.012407218 -0.057052873 0.18930726 -0.008666839
0.24002019 -0.103024065 -0.009363481 0.24683641 0.045497406 0.026803873 0.11230161 -0.21071821
-0.15143472 0.19196306 0.20635954 0.023052763 0.06942218 0.10092769 0.25759834 -0.3464424
-0.17352442 -0.08132708 0.09647595 -0.23815523 -0.030544542 -0.04461872 -0.20168307 -0.2819769
-0.07323411 0.083680086 0.1508191 0.14643133 0.24100518 0.07446612 -0.15810934 -0.21796165
-0.03336892 -0.0054899473 0.18920507 0.10034946 0.24654795 -0.0073822653 0.0771055 -0.18671276
0.016077166 0.016213339 0.041598532 -0.21893135 -0.015574735 0.10419532 0.19255793 -0.12586339
-0.20086968 -0.2773873 0.22391704 -0.044871908 0.09415612 0.24646805 -0.046431586 0.008055701
-0.17508389 0.08472868 0.28355983 0.04966122 0.24473388 -0.011992927 0.054312944 -0.035098914
-0.15449218 -0.002530551 0.31917608 0.21401192 -0.07317966 0.26146328 -0.24003193 -0.23225713
0.12935154 -0.027503463 0.10004395 0.051906396 0.08619759 0.31032288 -0.12845106 -0.10303185
0.29618153 0.25831538 0.11855942 -0.19390272 -0.1025497 -0.07354398 0.005905697 0.04237026
-0.19502664 -0.13767716 0.16603783 -0.16989037 -0.14907943 0.21043698 -0.03265738 0.18794177
-0.032253694 0.017524995 0.18287826 0.40026605 0.4046928 -0.47837257 -0.049969535 0.18983702
-0.007985055 -0.39960343 0.44587198 0.37228143 -0.099825114 0.11264175 -0.25030103 -0.24792007
00000000: cf27 e73d ccc5 df3d 1390 673d 5bab 023e
00000010: 1c97 253e 99e8 fdbc 6df5 85bd 908b 83be
00000020: 1039 14be adef 523c d0f1 253e 251f 093d
00000030: a8d2 1c3e 66b0 4abe 797d 99bd 0383 9ebe
00000040: ab8b 583e 9d05 5dbe 3f98 a53d 958a a73e
00000050: 3b3c 1bbe 2a17 913e 7fe9 49be 3329 c0be
00000060: 59c3 0b3e 94b8 103e 5e0d 783d 283e bcbe
00000070: 9791 803d aeb0 ad3d 53a2 74bd f0e9 a23d
00000080: e090 ae3e b638 e7bd d6e0 ad3e 96a5 53bc
00000090: 9e6d f83d f4cc 853e 427f c9bb c2c6 123e
000000a0: ed8f 973e e5f9 d43d c4fd f43d c41b 6c3d
000000b0: b6a8 99bd c842 423c 24ec e5bd ad4d 253e
000000c0: e075 063e 7e85 51bc fc74 6bbb 81ef aabd
000000d0: f807 643d c973 b63c 94a6 0fbe ed65 143d
000000e0: 1af6 513d a878 cd3d e232 56be 507a 28bd
000000f0: bc3b b1bd 3813 473e 1a7a 4fbe 984d 31be
00000100: dadb 973d c75d 00be df95 2bbb 5f00 b0bd
00000110: faa2 a7bd 2489 35be 04d9 b9bd a324 06be
00000120: db88 45be ea96 133c 37d4 523e 1181 00bd
00000130: 6506 113e 6479 6b3e 4e73 bdbd b91a 243e
00000140: a429 f63c 5d58 bb3d 2ca0 8abd fd54 ae3d
00000150: 0235 273e c501 92bd e2d6 7abe b0f3 1dbe
00000160: 5044 56ba 5feb d2bd 7721 9fbd 1d33 babd
00000170: 2988 283e f175 343e c758 ae3d d13d 0dbd
00000180: 8797 caba 7c55 763e 87a2 863d 7322 9f3d
00000190: db03 3c3d b8b5 b33c 679a 21bc 369d 3bbd
000001a0: 9572 063d 6337 e73c 0383 c5bc 1a84 ae3d
000001b0: fe27 ae3d 2077 ed3d 75b0 373e 50d4 f2bc
000001c0: e971 4b3e c1df 473d 99db 04be 8adf 5b3c
000001d0: 422e ddbd 04e7 1ebe 768f a83d 7247 5cbd
000001e0: 660f cb3e 7f4f b4be 233a 6e3d 4215 b43e
000001f0: 914e 0fbe 19dd 673d f110 4c3d 6a9a 68bd
00000200: db2c c73c bde4 b53d 8f2a 553e b5ea 8dbd
00000210: c58c 6ebd d42f 27be 0068 99bc c665 403e
00000220: 8d65 fbbd 3db2 64be 3c95 80be eac9 f3bd
00000230: a547 4bbc 46b0 69bd c3d9 413e 5cff 0dbc
00000240: dac7 753e 48fe d2bd 4969 19bc afc2 7c3e
00000250: 7d5b 3a3d cc93 db3c 63fe e53d 84c6 57be
00000260: b411 1bbe f791 443e ea4f 533e 26d9 bc3c
00000270: 372d 8e3d 2db3 ce3d eee3 833e e660 b1be
00000280: 63b0 31be d08e a6bd 2f95 c53d f7de 73be
00000290: 8c38 fabc 1ec2 36bd 0286 4ebe 475f 90be
000002a0: c4fb 95bd 7760 ab3d 5270 1a3e 18f2 153e
000002b0: 10ca 763e b181 983d 6ae7 21be 5731 5fbe
000002c0: d9ad 08bd 04e5 b3bb f9be 413e 0584 cd3d
000002d0: 1177 7c3e eee6 f1bb 7de9 9d3d a131 3fbe
000002e0: 43b4 833c d6d1 843c 3963 2a3d 8a2f 60be
000002f0: 2c2d 7fbc 5b64 d53d e82d 453e 55e2 00be
00000300: c8b0 4dbe b505 8ebe 824a 653e 9bcb 37bd
00000310: edd4 c03d 1f62 7c3e 0c2f 3ebd 0ffc 033c
00000320: 3149 33be 3b86 ad3d c12e 913e 9069 4b3d
00000330: 859b 7a3e fb7d 44bc 4077 5e3d e1c3 0fbd
00000340: 3333 1ebe 9ad7 25bb 0c6b a33e f125 5b3e
00000350: 38df 95bd 84de 853e eeca 75be d0d4 6dbe
00000360: bb74 043e f14e e1bc d8e3 cc3d cd9b 543d
00000370: 5d88 b03d a4e2 9e3e ad88 03be 5d02 d3bd
00000380: 1ba5 973e ea41 843e 48cf f23d 6f8e 46be
00000390: 9405 d2bd 3a9e 96bd 9484 c13b 708c 2d3d
000003a0: 10b5 47be 3efb 0cbe d205 2a3e bef7 2dbe
000003b0: 47a8 18be cb7c 573e bfc3 05bd cf73 403e
000003c0: 731c 04bd 9490 8f3c 7044 3b3e acef cc3e
000003d0: e533 cf3e 40ed f4be dbac 4cbd a364 423e
000003e0: c0d3 02bc d298 ccbe 5549 e43e ac9b be3e
000003f0: 1c71 ccbd b8b0 e63d 7527 80be c2de 7dbe

model.rnn.bias_ih_l0 f4 [160]
-0.0045045433 0.14635566 0.2285875 -0.16843326 0.40448838 0.27781433 0.43335196 0.728068
0.119007565 -0.015006975 0.3970747 0.5264678 0.53565496 0.20190506 0.056176744 0.40180027
0.15344003 0.07849505 -0.01280779 -0.012394349 0.30317852 0.023070449 0.36850926 -0.05894928
0.1655893 -0.052823007 0.014708946 0.23299891 -0.13707823 -0.07791605 0.2966172 -0.035231024
0.10572992 0.01826661 -0.12610626 0.14870875 0.19015338 0.012413529 0.14256327 0.02386499
0.09647273 0.10049398 0.058777645 -0.08063095 -0.03357483 0.03292914 0.013261938 -0.08170901
0.04692687 -0.099136025 0.022863345 0.25870228 0.13806899 0.119345054 -0.07202828 0.18285786
-0.07519672 0.095705405 0.09421845 -0.18957822 0.12675066 -0.13348398 0.004552244 -0.11923436
0.016174098 0.123245835 0.05623194 0.047339506 0.115401514 -0.10329143 0.17004065 -0.031424005
-0.09160952 0.0023769282 0.04740425 0.09736067 -0.0006040489 0.12256615 -0.043862313 0.106370665
0.060866002 -0.1453817 -0.10944007 0.064772055 -0.10375684 0.037748363 0.13845202 -0.017663257
0.15494095 0.062385082 0.19254093 -0.039601855 0.2446321 0.12470138 -0.14222011 -0.19385436
0.00026328862 0.0032205228 0.11978138 0.08527339 0.17187828 -0.03506053 -0.15245076 -0.14490989
0.08858225 0.12258104 0.12284655 -0.11350758 -0.19654232 0.036940247 0.0010177265 0.103840336
-0.15968193 -0.041554015 -0.09080495 -0.15095493 0.15623066 0.2831089 0.0061079985 -0.122535884
0.10540276 0.079588436 -0.15086535 -0.1286907 0.18626185 0.12286549 0.26205674 -0.048706185
0.08230267 0.06311377 0.11216733 0.17943072 0.13192166 0.03486607 0.048270773 -0.017509827
0.017278463 0.2060875 0.014177657 0.12931263 0.11190523 0.0066081383 0.0031379818 0.18276723
0.110102065 0.18129824 0.057198443 0.17144717 0.10059397 -0.00023765939 0.058788758 0.117196865
0.3573971 0.13342278 0.117023 0.014330746 0.19394092 0.098847434 -0.055327892 0.13905886
00000000: d99a 93bb 42de 153e d712 6a3e c579 2cbe
00000010: 1a19 cf3e ae3d 8e3e 4fe0 dd3e aa62 3a3f
00000020: 3dba f33d d1df 75bc 604d cb3e 98c6 063f
00000030: af20 093f 33c0 4e3e 9619 663d c4b8 cd3e
00000040: 621f 1d3e 03c2 a03d c4d7 51bc ab11 4bbc
00000050: 373a 9b3e 3dfe bc3c 3fad bc3e cd74 71bd
00000060: 3e90 293e f05c 58bd cbfd 703c 4497 6e3e
00000070: 3c5e 0cbe 7392 9fbd 36de 973e 684e 10bd
00000080: ee88 d83d dca3 953c 0022 01be 1b47 183e
00000090: 91b7 423e 1d62 4b3c 1bfc 113e 8380 c33c
000000a0: 7f93 c53d cacf cd3d d4c0 703d d721 a5bd
000000b0: c385 09bd b5e0 063d 9948 593c 0e57 a7bd
000000c0: 6436 403d d407 cbbd e94b bb3c a074 843e
000000d0: f561 0d3e 2e6b f43d 9083 93bd 173f 3b3e
000000e0: bd00 9abd 3201 c43d 9af5 c03d cb20 42be
000000f0: edca 013e 06b0 08be fe2a 953b 2531 f4bd
00000100: 8b7f 843c 5068 fc3d 7653 663d 12e7 413d
00000110: a157 ec3d 758a d3bd 231f 2e3e 75b6 00bd
00000120: c69d bbbd 3dc6 1b3b f52a 423d 0865 c73d
00000130: 0959 1eba f603 fb3d f8a8 33bd ddd8 d93d
00000140: a14e 793d f1de 14be 1e22 e0bd 36a7 843d
00000150: 777e d4bd 079e 1a3d 5ec6 0d3e 89b2 90bc
00000160: d7a8 1e3e 8087 7f3d 7329 453e 8e35 22bd
00000170: d680 7a3e 7063 ff3d 26a2 11be c281 46be
00000180: 000a 8a39 680f 533b f14f f53d d1a3 ae3d
00000190: dc00 303e a19b 0fbd 0d1c 1cbe 4263 14be
000001a0: 9c6a b53d c50b fb3d f996 fb3d a976 e8bd
000001b0: 6442 49be a84e 173d 3c65 853a 3eaa d43d
000001c0: a983 23be 8b34 2abd f2f7 b9bd ee93 1abe
000001d0: eefa 1f3e a6f3 903e 9b25 c83b 18f4 fabd
000001e0: 67dd d73d 43ff a23d 727c 1abe 7fc7 03be
000001f0: 6dbb 3e3e e7a0 fb3d 4d2c 863e 2380 47bd
00000200: 4d8e a83d cb41 813d fcb7 e53d b0bc 373e
00000210: 7916 073e b9cf 0e3d 93b7 453d c570 8fbc
00000220: 908b 8d3c 9a08 533e 6749 683c 886a 043e
00000230: 922e e53d 1589 d83b 99a6 4d3b 5527 3b3e
00000240: 317d e13d 3fa6 393e ea48 6a3d d98f 2f3e
00000250: 3604 ce3d 3534 79b9 7bcc 703d e904 f03d
00000260: c1fc b63e fb9f 083e c1a9 ef3d 81cb 6a3c
00000270: 7398 463e 8670 ca3d 809f 62bd 7265 0e3e

model.rnn.bias_hh_l0 f4 [160]
-0.21382955 0.19960834 0.1757797 0.031232757 0.37429658 0.14444727 0.4994383 0.49909124
0.24120463 -0.02803488 0.17058852 0.43484485 0.5847623 0.11817569 -0.13225684 0.48295498
0.24819711 0.048459172 -0.017090248 -0.009263467 0.404002 0.13095348 0.39636064 -0.00025313464
0.15024577 0.19206518 0.19630682 0.092041135 -0.1478313 0.15423048 0.50547063 -0.027740233
0.35459858 0.19509761 0.07644383 0.2907954 -0.08282154 0.2387036 0.027982127 0.20685315
0.17670125 0.16652533 -0.11321079 0.008191096 0.050545216 0.21659786 -0.027567029 0.09317022
0.138873 0.031670194 0.116091914 0.08236433 0.017766722 0.14586382 0.09599801 0.081222765
0.09047514 -0.10839577 0.0064293765 -0.10236049 -0.12065192 0.14287671 0.14299646 -0.047938604
0.11918951 -0.113155924 -0.17185469 0.14240263 -0.069948204 -0.07530936 -0.03180085 0.047448274
-0.0751769 0.06280115 0.0103231445 -0.14237803 0.114251755 -0.045502737 -0.108985126 0.096653156
-0.1195842 -0.09727718 -0.003623291 0.15919231 -0.0068481 -0.0046629505 0.059596863 -0.19303846
0.09477994 -0.10206639 0.030842606 -0.07930706 0.24396196 -0.058104966 0.12437572 -0.12805222
-0.07790807 -0.116785735 0.10489153 -0.020139666 0.108006865 0.026849225 -0.00813812 -0.07042025
-0.14339821 0.06932614 0.05084367 -0.11768297 -0.05717453 0.026774807 0.17692773 -0.00055201293
0.04283955 -0.054940168 0.02319341 -0.15353885 0.013471137 0.36865565 0.13569836 0.14628266
0.19368112 -0.09121362 -0.13928975 0.08606973 0.10545605 0.029872673 0.24328983 0.1483308
0.31428465 0.06537766 0.19898984 -0.08935559 0.117036834 -0.014126162 0.005964171 0.029480828
0.04750477 0.15232141 0.13270456 0.15918496 0.11784284 -0.11409563 0.12663038 -0.014717368
-0.028367521 0.16278715 -0.07347322 -0.055896442 0.067262344 -0.10407789 -0.11136853 -0.047550805
0.14465585 -0.09515368 -0.06111826 0.01371713 0.22841 -0.096661285 0.17985807 -0.030919595
00000000: 22f6 5abe 2166 4c3e 98ff 333e d7db ff3c
00000010: cda3 bf3e fce9 133e 60b6 ff3e e388 ff3e
00000020: 59fe 763e 68a9 e5bc c2ae 2e3e fca3 de3e
00000030: fbb2 153f 1906 f23d 566e 07be e045 f73e
00000040: 6227 7e3e 207d 463d d900 8cbc ccc5 17bc
00000050: 5ad9 ce3e ab18 063e c8ef ca3e 28b7 84b9
00000060: 07da 193e bcac 443e a804 493e 1080 bc3d
00000070: 1761 17be 98ee 1d3e 8666 013f 7c3f e3bc
00000080: f28d b53e abc7 473e 958e 9c3d 22e3 943e
00000090: 579e a9bd b76e 743e c63a e53c 50d1 533e
000000a0: 2cf1 343e 9e85 2a3e 0fdb e7bd f233 063c
000000b0: 8008 4f3d d4cb 5d3e 40d4 e1bc 07d0 be3d
000000c0: b934 0e3e 9bb8 013d 99c1 ed3d a1ae a83d
000000d0: 848b 913c 535d 153e 9b9a c43d 1f58 a63d
000000e0: 084b b93d 9afe ddbd 85ad d23b 60a2 d1bd
000000f0: 5b18 f7bd 464e 123e aa6d 123e 455b 44bd
00000100: a119 f43d 4bbe e7bd adfa 2fbe ffd1 113e
00000110: 0141 8fbd cb3b 9abd 9c41 02bd 1f59 423d
00000120: 59f6 99bd e49d 803d 6822 293c 8ccb 11be
00000130: d3fc e93d 1461 3abd 9833 dfbd 17f2 c53d
00000140: 90e8 f4bd 4239 c7bd bc74 6dbb 4f03 233e
00000150: 0766 e0bb aacb 98bb d71b 743d e0ab 45be
00000160: fc1b c23d 2f08 d1bd a2a9 fc3c bd6b a2bd
00000170: 2ad1 793e 79ff 6dbd b3b8 fe3d 1f20 03be
00000180: 448e 9fbd 5c2d efbd 5fd1 d63d f1fb a4bc
00000190: b432 dd3d e8f2 db3c c055 05bc 7e38 90bd
000001a0: fbd6 12be ddfa 8d3d 7441 503d c503 f1bd
000001b0: d72f 6abd d756 db3c 8b2c 353e f6b4 10ba
000001c0: 8678 2f3d f108 61bd 1b00 be3c 4a39 1dbe
000001d0: 0bb6 5c3c 6fc0 bc3e 83f4 0a3e 1fcb 153e
000001e0: 5854 463e 35ce babd f9a1 0ebe 5445 b03d
000001f0: 57f9 d73d 89b7 f43c f820 793e 07e4 173e
00000200: ebe9 a03e b9e4 853d fec3 4b3e 1000 b7bd
00000210: 02b1 ef3d 6b71 67bc 186f c33b c781 f13c
00000220: 5d94 423d 25fa 1b3e b4e3 073e 6201 233e
00000230: 9657 f13d f8aa e9bd 65ab 013e 1e21 71bc
00000240: 0163 e8bc adb1 263e 2179 96bd abf3 64bd
00000250: d7c0 893d ca26 d5bd 2f15 e4bd a2c4 42bd
00000260: aa20 143e efdf c2bd 2457 7abd d0bd 603c
00000270: 50e4 693e 5af6 c5bd b72c 383e 174b fdbc

model.rnn.weight_ih_l1 f4 [160, 40]
-0.041796736 -0.054562982 0.030787231 0.44387615 -0.031267736 0.10824734 0.32829314 0.10952108
0.11619184 0.10734404 -0.027488386 0.0008487492 -0.06575639 -0.11974105 0.106556445 0.15456036
0.09035233 0.05101946 -0.04931055 0.114777885 0.008729571 0.053222515 -0.07630777 0.08100239
-0.019446118 0.0026499643 0.03674236 -0.08884626 -0.087918304 -0.37781015 -0.055587668 0.118601575
0.23139395 0.06803091 0.05688504 -0.0689005 -0.060960636 0.22989734 0.037516933 -0.076161385
0.014788114 -0.1327379 -0.073557615 0.30692816 -0.015407126 -0.22211845 -0.059801072 -0.1875105
0.016596869 0.025982995 -0.039373286 0.036502335 0.071031295 0.045075044 0.0023387605 -0.03614462
0.10050114 -0.007044294 -0.18432766 0.031059185 -0.005428157 -0.038947213 0.013083969 0.023476308
-0.012494545 0.0848615 0.014056997 -0.13485107 -0.34360006 -0.2880684 0.038027525 0.15142824
-0.24842326 -0.06988275 0.14209044 -0.24082495 -0.045681383 0.15850915 0.006484989 -0.18527326
0.3379485 0.058945302 -0.06541688 0.43280643 0.02381431 -0.07183824 -0.16173713 -0.14255767
0.08313955 0.13104144 0.201772 -0.14062743 -0.019373838 0.17451409 -0.17575736 -0.18982343
0.24678461 0.17598066 -0.26093003 0.25545996 -0.1042451 0.013170242 -0.09294896 -0.13506909
0.07753256 0.1561326 -0.049848862 -0.14007048 0.20309871 -0.08253551 -0.14482309 0.16894089
-0.04575766 -0.01765366 0.2329832 -0.28095987 0.12344293 0.20793614 0.10694775 0.15765503
-0.08293133 0.17386517 0.32228592 0.3077979 0.29988638 -0.22248922 -0.19698438 0.11926321
-0.446091 -0.23812304 0.25874293 0.4457382 -0.3655325 0.69520175 -0.6051842 -0.40603656
0.22052641 0.16327728 -0.0614554 0.45136967 -0.52556074 0.51892006 -0.4173846 -0.6095804
0.3789415 0.6023838 0.2544543 -0.42677364 -0.014693492 -0.5049827 -0.23589362 0.5758226
0.20028855 -0.50463456 0.23083276 -0.19442435 0.3776719 0.6665159 -0.41006157 0.31226704
0.06320522 0.34556624 0.24711132 -0.15766491 0.31317547 -0.4173317 -0.2899991 0.21490882
-0.52446246 -0.5389221 0.28043514 0.3961451 0.031646706 0.48640755 -0.48491466 -0.36408728
0.21369153 0.068844184 -0.04943585 0.28556478 -0.090718135 0.56844556 -0.33254492 -0.37685895
0.47052282 0.6287249 0.57461554 -0.30712348 0.006190826 -0.40427992 -0.16288877 0.42132792
0.21522835 -0.5309185 0.5500817 -0.70062125 0.46483645 0.412125 -0.4877497 0.42176405
0.19434732 0.14053507 0.13102646 0.7973275 -0.07936879 0.06233251 -0.15731564 0.0066098673
-0.1634943 -0.14587036 0.027012892 0.2297654 -0.027048562 0.28405368 -0.1763133 -0.07050408
-0.025727032 0.19863915 -0.52502596 0.2651745 -0.11833725 0.16718529 -0.15470222 -0.17121458
0.40347865 0.038401105 0.18703021 -0.07463853 -0.12210351 -0.64422977 0.0139725525 -0.007427064
-0.12318423 -0.2081737 0.4574442 -0.13092859 0.13457459 0.50449353 -0.06144991 0.2592889
0.60474837 0.4247137 0.40353215 0.017537832 0.06239567 -0.2540252 -0.21436158 0.38367772
-0.55945206 -0.29593113 -0.012947448 0.2208213 -0.41602343 0.3149485 -0.34664515 -0.24087638
00000000: 0e33 2bbd 6f7d 5fbd 8135 fc3c bc43 e33e
00000010: 9912 00bd c8b0 dd3d 0a16 a83e 974c e03d
00000020: fdf5 ed3d 31d7 db3d 532f e1bc 987e 5e3a
00000030: 49ab 86bd cc3a f5bd 443a da3d 1245 1e3e
00000040: a40a b93d c8f9 503d dcf9 49bd ab10 eb3d
00000050: 7906 0f3c daff 593d 4047 9cbd 95e4 a53d
00000060: 774d 9fbc 06ab 2d3b 287f 163d 07f5 b5bd
00000070: 830e b4bd 5570 c1be e5af 63bd 62e5 f23d
00000080: 89f2 6c3e ca53 8b3d 4a00 693d b51b 8dbd
00000090: dcb1 79bd 356a 6b3e 5bab 193d 80fa 9bbd
000000a0: d849 723c 72ec 07be 60a5 96bd b025 9d3e
000000b0: 2c6e 7cbc 0573 63be f8f1 74bd c102 40be
000000c0: 28f6 873c 4ada d43c e245 21bd 7983 153d
000000d0: db78 913d 9ca0 383d e445 193b 620c 14bd
000000e0: 8bd3 cd3d d2d3 e6bb 64c0 3cbe d56f fe3c
000000f0: aede b1bb 1d87 1fbd 255e 563c 6351 c03c
00000100: ecb5 4cbc decb ad3d 524f 663c 6616 0abe
00000110: 59ec afbe b47d 93be c0c2 1b3d 0110 1b3e
00000120: ab62 7ebe b01e 8fbd 2880 113e d19a 76be
00000130: 671c 3bbd 3950 223e 0880 d43b 46b8 3dbe
00000140: 9607 ad3e a170 713d 49f9 85bd ce98 dd3e
00000150: 3a16 c33c ed1f 93bd 6b9e 25be a3fa 11be
00000160: 1245 aa3d ba2f 063e 529d 4e3e a300 10be
00000170: e2b5 9ebc d2b3 323e bdf9 33be 1361 42be
00000180: 1bb5 7c3e 4634 343e 9f98 85be a6cb 823e
00000190: 747e d5bd 00c8 573c 065c bebd 8d4f 0abe
000001a0: 64c9 9e3d 39e1 1f3e 522e 4cbd a36e 0fbe
000001b0: 1cf9 4f3e 6108 a9bd 814c 14be d7fe 2c3e
000001c0: 626c 3bbd 699e 90bc 2693 6e3e f9d9 8fbe
000001d0: a6cf fc3d 36ed 543e 6c07 db3d 5270 213e
000001e0: e7d7 a9bd b609 323e a902 a53e b097 9d3e
000001f0: b58a 993e 37d4 63be 46b6 49be 4540 f43d
00000200: 0a66 e4be 87d6 73be f479 843e cc37 e43e
00000210: 1327 bbbe bef8 313f 5aed 1abf 06e4 cfbe
00000220: add1 613e 2932 273e a8b8 7bbd ed19 e73e
00000230: 268b 06bf f2d7 043f 6fb3 d5be 760d 1cbf
00000240: 9f04 c23e d335 1a3f d647 823e 1382 dabe
00000250: f9bc 70bc 8c46 01bf 198e 71be 1c69 133f
00000260: 7118 4d3e bb2f 01bf 6c5f 6c3e 2d17 47be
00000270: 365e c13e c9a0 2a3f 97f3 d1be 77e1 9f3e
00000280: bd71 813d 0fee b03e c00a 7d3e e972 21be
00000290: 8958 a03e 80ac d5be c37a 94be 0f11 5c3e
000002a0: 2c43 06bf ccf6 09bf 3295 8f3e 88d3 ca3e
000002b0: fa9f 013d 690a f93e bc46 f8be a669 babe
000002c0: f4d1 5a3e 2efe 8c3d 3f7d 4abd 8c35 923e
000002d0: 6eca b9bd a685 113f 5443 aabe a8f3 c0be
000002e0: 5ee8 f03e 1df4 203f 011a 133f 4a3f 9dbe
000002f0: 6adc ca3b c7fd cebe 50cc 26be 4bb8 d73e
00000300: d264 5c3e 46ea 07bf 27d2 0c3f ea5b 33bf
00000310: 0bff ed3e 0c02 d33e 54ba f9be 75f1 d73e
00000320: fc02 473e 6de8 0f3e cd2b 063e a81d 4c3f
00000330: 1b8c a2bd 6050 7f3d 5a17 21be 9697 d83b
00000340: 0d6b 27be 0a5f 15be 244a dd3c 9f47 6b3e
00000350: f294 ddbc 7c6f 913e 798b 34be 7164 90bd
00000360: 7fc1 d2bc 1068 4b3e 1a68 06bf f4c4 873e
00000370: cd5a f2bd 9f32 2b3e 426a 1ebe e052 2fbe
00000380: c194 ce3e 7a4a 1d3d d984 3f3e 16dc 98bd
00000390: 6811 fabd 3eec 24bf 22ed 643c ba5e f3bb
000003a0: 0348 fcbd 7d2b 55be 2036 ea3e 2512 06be
000003b0: eccd 093e 7d26 013f e7b2 7bbd 84c1 843e
000003c0: cad0 1a3f 1374 d93e c49b ce3e 80ab 8f3c
000003d0: 9a92 7f3d 970f 82be 9a81 5bbe 6871 c43e
000003e0: 4038 0fbf 4984 97be 8821 54bc fb1e 623e
000003f0: 0601 d5be ee40 a13e 797b b1be 4ca8 76be

model.rnn.weight_hh_l1 f4 [160, 40]
0.119194634 0.33908752 0.14211133 -0.11696073 -0.04241211 -0.17598136 -0.13245912 0.00011450555
0.007237664 -0.060396753 -0.115155 -0.109548956 -0.042693775 -0.13879439 -0.084846556 0.013121053
0.019106537 -0.14291757 0.009721285 -0.14049037 -0.08729858 -0.14147754 -0.058607705 0.072132416
-0.083794676 -0.09595236 0.09350509 -0.066906214 0.15917078 0.11470636 -0.17019145 0.022779597
-0.13531908 0.15353094 -0.092155516 0.10128655 -0.1794944 0.117864676 -0.07548115 -0.06238978
-0.02629552 -0.17758323 -0.058533974 0.022329133 0.015214108 0.07257924 0.0025266532 -0.17372121
0.030373035 -0.026936177 0.0048052133 0.05912188 0.17806168 0.056687955 0.20855798 -0.19287321
0.0061326344 0.08646446 0.033243313 -0.08167935 -0.0690986 0.045040913 -0.025706107 -0.09890594
-0.13164765 -0.081402846 0.14618248 0.11110071 -0.06263513 0.14923409 0.078662425 0.12842457
-0.25630248 -0.06304095 0.15535407 0.1182362 -0.039822664 -0.13197786 0.0130727505 -0.16778019
-0.11933374 0.18568853 -0.13022634 0.058329914 0.18704799 -0.1990194 0.049891893 0.011365149
0.14540704 -0.1746333 -0.09083156 -0.20094147 0.067827046 0.043684114 0.06716286 0.097920924
0.03669107 0.097531185 0.099951595 -0.20929074 0.07101476 0.24384782 0.13380091 -0.08390506
-0.028575258 -0.16301198 -0.029901734 0.0055618626 -0.062439088 -0.06314896 -0.10861987 -0.12281634
-0.065109886 0.0018220893 -0.19870207 0.13223036 0.03750144 0.04071537 -0.058416918 -0.13812263
-0.3164477 0.360431 -0.18616115 0.38132337 -0.25830647 0.20750403 -0.22524779 -0.24370451
-0.43568546 -0.35167187 -0.40545213 -0.25821456 -0.6386457 0.24526295 -0.3958085 0.20265913
-0.28023896 -0.34514186 -0.2510788 0.17816788 -0.34874013 0.33867955 -0.07566628 0.31587404
-0.121222556 0.2986385 -0.3999036 -0.27609167 -0.28161114 -0.10458124 0.39187798 -0.46442372
0.47329164 0.3722258 -0.34803507 -0.5679712 -0.43909028 0.10411532 0.012189042 0.4512179
-0.00078333187 0.32351294 -0.09488778 0.25421682 -0.0036238416 0.22990419 -0.34154993 -0.42344984
-0.106451355 -0.056509305 -0.5038778 -0.2901931 -0.13207507 0.22971997 -0.120017834 -0.118204765
0.025667146 -0.13964829 0.1317678 0.040287036 -0.21688092 0.026443241 -0.13059361 0.026383024
-0.14168857 0.013290094 -0.09921886 0.09270654 0.042443994 0.030421846 0.22366026 -0.1876152
0.028625526 0.41786212 -0.22802578 -0.17577298 -0.03152974 -0.14392635 0.3549857 0.30685225
-0.19162223 0.5114158 -0.10890292 -0.19112585 -0.17242414 -0.18786246 -0.06949303 -0.31942216
-0.01885591 -0.23249675 -0.16782893 -0.38515627 -0.19784969 0.12094659 -0.17138278 0.036372274
-0.12220728 -0.32605842 0.22851826 -0.058563255 0.07255702 0.23965843 0.3423769 0.13547175
0.015133404 0.13089246 -0.2638631 -0.00491154 -0.12516434 0.008717726 0.08230699 -0.06489291
0.18760434 0.18855797 -0.106179096 -0.024149233 -0.102441914 0.11115778 0.12822504 0.23795497
0.022655236 0.2137512 0.16951779 -0.152549 -0.39087495 0.019918896 0.2209554 0.107816406
-0.4207276 -0.16223258 0.119904324 -0.007240178 0.20509253 -0.0008280847 0.13920306 -0.17572379
00000000: 511c f43d e19c ad3e a285 113e 1b89 efbd
00000010: 52b8 2dbd 7534 34be 5da3 07be b322 f038
00000020: ed29 ed3b 9662 77bd 62d6 ebbd 345b e0bd
00000030: abdf 2ebd 1e20 0ebe 08c4 adbd aff9 563c
00000040: 5085 9c3c fc58 12be 0646 1f3c b5dc 0fbe
00000050: 99c9 b2bd 7ddf 10be a20e 70bd 29ba 933d
00000060: 8b9c abbd ac82 c4bd 997f bf3d 2006 89bd
00000070: aafd 223e 2beb ea3d ab46 2ebe 479c ba3c
00000080: 1691 0abe 3737 1d3e 08bc bcbd 536f cf3d
00000090: 61cd 37be 0963 f13d dc95 9abd 6d8c 7fbd
000000a0: b469 d7bc 61d8 35be 52c1 6fbd 96eb b63c
000000b0: 9844 793c 6da4 943d 3596 253b f9e3 31be
000000c0: dfd0 f83c 42a9 dcbc 0d75 9d3b c929 723d
000000d0: cd55 363e a131 683d 3990 553e 8e80 45be
000000e0: 44f4 c83b 4714 b13d 242a 083d 8147 a7bd
000000f0: 9183 8dbd d27c 383d 9d95 d2bc 338f cabd
00000100: a4ce 06be 89b6 a6bd dcb0 153e c588 e33d
00000110: d946 80bd d2d0 183e c419 a13d bb81 033e
00000120: 143a 83be 9d1b 81bd 2315 1f3e d225 f23d
00000130: 171d 23bd 3425 07be 172f 563c 92ce 2bbe
00000140: 3f65 f4bd 2225 3e3e 0e5a 05be 59eb 6e3d
00000150: 8289 3f3e becb 4bbe 715b 4c3d e434 3a3c
00000160: 95e5 143e 12d3 32be e605 babd 9ac3 4dbe
00000170: e8e8 8a3d 1dee 323d ae8c 893d c48a c83d
00000180: 6049 163d 6ebe c73d 6cb3 cc3d 5050 56be
00000190: 3070 913d 3eb3 793e 1b03 093e 6bd6 abbd
000001a0: a916 eabc 9dec 26be 7bf4 f4bc 4940 b63b
000001b0: 21c0 7fbd 3e54 81bd 1874 debd 2287 fbbd
000001c0: 5558 85bd 2cd3 ee3a 8e78 4bbe 6567 073e
000001d0: 1c9b 193d 29c5 263d 9446 6fbd 0570 0dbe
000001e0: 6f05 a2be 698a b83e 07a1 3ebe d13c c33e
000001f0: bf40 84be f07b 543e 5ba7 66be ad8d 79be
00000200: 2a12 dfbe 560e b4be 6c97 cfbe b334 84be
00000210: 497e 23bf 3626 7b3e 69a7 cabe e085 4f3e
00000220: 7b7b 8fbe 6fb6 b0be 678d 80be a471 363e
00000230: 118e b2be 6867 ad3e ecf6 9abd 3eba a13e
00000240: 8843 f8bd 25e7 983e 2ac0 ccbe e35b 8dbe
00000250: 562f 90be b02e d6bd 3ba4 c83e f2c8 edbe
00000260: 4853 f23e 6194 be3e a731 b2be 9066 11bf
00000270: 71d0 e0be 6a3a d53d 8cb4 473c 0806 e73e
00000280: 8358 4dba 7da3 a53e 8654 c2bd b528 823e
00000290: f97d 6dbb 016c 6b3e a2df aebe 6bce d8be
000002a0: 2b03 dabd 4d76 67bd 23fe 00bf 3194 94be
000002b0: b03e 07be b63b 6b3e e9cb f5bd 5715 f2bd
000002c0: e843 d23c f6ff 0ebe 23ee 063e 0504 253d
000002d0: 0816 5ebe 7f9f d83c 55ba 05be 3621 d83c
000002e0: cf16 11be b2be 593c 4233 cbbd eddc bd3d
000002f0: c1d9 2d3d 3c37 f93c 3207 653e 331e 40be
00000300: 1480 ea3c 06f2 d53e 977f 69be d5fd 33be
00000310: 5425 01bd 6e61 13be b0c0 b53e bd1b 9d3e
00000320: 9e38 44be 25ec 023f 7e08 dfbd 7fb6 43be
00000330: f48f 30be 045f 40be 5d52 8ebd 4d8b a3be
00000340: b677 9abc a113 6ebe 59db 2bbe 3433 c5be
00000350: 1c99 4abe d9b2 f73d f87e 2fbe 18fb 143d
00000360: cf47 fabd 21f1 a6be b100 6a3e 06e0 6fbd
00000370: c698 943d 0569 753e 064c af3e 1bb9 0a3e
00000380: 19f2 773c ac08 063e 1019 87be fcf0 a0bb
00000390: 152b 00be cbd4 0e3c 9190 a83d 93e6 84bd
000003a0: 5a1b 403e 5715 413e 6d74 d9bd 9dd4 c5bc
000003b0: 11cd d1bd b1a6 e33d 6d4d 033e 78aa 733e
000003c0: 7997 b93c 98e1 5a3e 1296 2d3e ce35 1cbe
000003d0: c320 c8be f42c a33c 2242 623e d9ce dc3d
000003e0: 9c69 d7be 4c20 26be 6690 f53d 043f edbb
000003f0: c703 523e d313 59ba 3f8b 0e3e f0f0 33be

model.rnn.bias_ih_l1 f4 [160]
0.1672443 0.1643419 0.18466464 0.7055815 0.78692436 0.16418263 0.2964423 0.33444375
0.28610277 0.111998774 0.08845203 0.2071244 0.3036143 0.2629932 0.50653154 0.29118398
0.2503489 0.09042323 0.16345933 0.46067315 0.000293113 0.08581649 0.20436484 0.2589257
0.3316069 0.1200235 0.034988 0.24558103 0.026713103 0.2885514 0.20730639 0.09814401
0.013190636 -0.093216635 0.21507823 0.45324126 0.3011816 0.1835136 0.16327459 0.06834391
-0.010238935 0.11356272 0.032412574 -0.11139655 0.05917453 -0.011971136 -0.0024696665 0.13992861
0.09246662 -0.045000307 -0.11496852 -0.02451266 0.014019764 0.11829119 0.25007185 -0.024607085
0.14256601 0.1797819 0.05920305 -0.08060428 -0.02023824 0.19921912 -0.10085053 0.051131453
0.12129004 -0.06994013 0.06085623 -0.0053179157 0.013690496 0.05349898 -0.06386501 -0.09900937
-0.045271095 0.091009505 -0.061035134 0.0018675457 0.061304618 0.026447825 0.06482341 0.18513586
0.066307515 0.18935391 -0.079785876 0.034597304 0.08496268 0.0059397332 -0.076207295 -0.04680632
0.16286735 -0.19398166 -0.056832217 -0.10103586 -0.10026481 0.1268077 -0.29714644 -0.1614955
0.038661886 -0.060488466 -0.0500316 0.029208796 -0.1340755 -0.09507793 0.01710885 -0.039248712
-0.26883596 -0.11138447 -0.100912884 0.1398282 0.091697596 0.044815883 -0.032396052 0.09737101
0.03607873 0.07602317 -0.12476573 -0.038133107 0.117189996 -0.12343846 -0.059011728 0.12074964
0.17271121 0.09962621 0.048399396 0.49199757 0.26151824 0.13234286 0.19046664 0.056011487
0.13181919 0.19154114 0.094691195 0.18775122 0.30765596 0.08135083 0.2878533 0.10047759
0.15606427 -0.06284902 0.04930525 0.29494134 -0.09186798 0.18380383 0.14365187 0.039450023
0.123104736 0.19863747 -0.034890514 0.2144602 0.20095325 0.3516908 0.17577909 0.13178398
0.046654306 0.20087013 0.07555674 -0.07588436 0.09835198 0.0034430227 0.08982001 0.13604882
00000000: 1742 2b3e 3e49 283e ba18 3d3e fda0 343f
00000010: e073 493f 7e1f 283e 49c7 973e 363c ab3e
00000020: 107c 923e 9d5f e53d 5726 b53d 6b18 543e
00000030: 5573 9b3e 0ba7 863e 0dac 013f 1116 953e
00000040: bb2d 803e d02f b93d e261 273e 5add eb3e
00000050: f6ac 9939 8ec0 af3d 0445 513e e991 843e
00000060: 61c8 a93e e1ce f53d 944f 0f3d 9879 7b3e
00000070: 70d5 da3c 02bd 933e 2048 543e baff c83d
00000080: 8a1d 583c 5de8 bebd 783d 5c3e 3d0f e83e
00000090: 7a34 9a3e fdea 3b3e 7431 273e e4f7 8b3d
000000a0: 35c1 27bc 9293 e83d 0cc3 043d e023 e4bd
000000b0: fe60 723d 9522 44bc 21da 21bb 7249 0f3e
000000c0: 245f bd3d 3e52 38bd 9e74 ebbd c6ce c8bc
000000d0: 27b3 653c a742 f23d 6b09 803e cc94 c9bc
000000e0: d3fc 113e bf18 383e e67e 723d db13 a5bd
000000f0: aaca a5bc 1900 4c3e b98a cebd 376f 513d
00000100: ea66 f83d c53c 8fbd 6244 793d e941 aebb
00000110: 1a4e 603c bf21 5b3d a9cb 82bd 6dc5 cabd
00000120: 2f6e 39bd 3163 ba3d faff 79bd 6fc8 f43a
00000130: 8d1a 7b3d 1ca9 d83c 23c2 843d 4194 3d3e
00000140: 3ccc 873d fee5 413e c766 a3bd e7b5 0d3d
00000150: ea00 ae3d 18a2 c23b 9212 9cbd fcb7 3fbd
00000160: b3c6 263e 21a3 46be e6c8 68bd e4eb cebd
00000170: a357 cdbd e1d9 013e 9423 98be 145f 25be
00000180: ed5b 1e3d c1c2 77bd efed 4cbd 4947 ef3c
00000190: 164b 09be 38b8 c2bd dc27 8c3c 42c3 20bd
000001a0: dea4 89be 8a1d e4bd 6aab cebd 202f 0f3e
000001b0: f3cb bb3d dc90 373d b9b1 04bd 746a c73d
000001c0: 4ac7 133d 09b2 9b3d 2d85 ffbd 7631 1cbd
000001d0: 4f01 f03d 4ecd fcbd 48b6 71bd 964b f73d
000001e0: 35db 303e d408 cc3d 723e 463d 1be7 fb3e
000001f0: b8e5 853e e384 073e b009 433e 4d6c 653d
00000200: 9cfb 063e 5c23 443e 75ed c13d db41 403e
00000210: 1585 9d3e 449b a63d 8261 933e 32c7 cd3d
00000220: 50cf 1f3e fdb6 80bd 4df4 493d 8d02 973e
00000230: 4825 bcbd 1237 3c3e 7a19 133e 5996 213d
00000240: 561e fc3d 9f67 4b3e 5be9 0ebd 749b 5b3e
00000250: b0c6 4d3e d110 b43e 6fff 333e 61f2 063e
00000260: 9618 3f3d e6b0 4d3e 7ebd 9a3d 4269 9bbd
00000270: c36c c93d 56a4 613b 8ef3 b73d 6250 0b3e

model.rnn.bias_hh_l1 f4 [160]
0.19553265 -0.016039975 0.22420159 0.5020676 0.6067845 0.39627653 0.42742342 0.42609358
0.21027224 0.08404327 0.2685401 0.3361852 0.26225322 0.24804762 0.50615656 0.32976866
0.42168736 0.18672697 0.24938236 0.5283949 0.083428174 0.24989524 0.113957405 0.112718776
0.17869627 0.105409555 0.27528054 0.39869004 0.07483003 0.21407048 0.14900006 0.31124622
0.15863147 0.15160693 0.32305223 0.29704684 0.1917769 0.20411547 0.33669648 0.30935216
-0.05429227 0.17659399 0.000502088 0.0044146157 0.18101604 -0.17931263 0.2012469 -0.015350815
0.1313355 0.056930557 0.08263533 0.12126613 0.049199075 -0.058319908 0.2645533 0.09495817
0.15807886 0.016410928 -0.06573439 -0.0457627 0.10818374 0.006458296 -0.06176041 -0.09453053
-0.02167994 0.21420768 0.14054292 0.26189363 0.09967194 0.08861501 -0.10301695 0.20706935
0.056794904 -0.03967675 0.05277241 0.09040899 -0.04451939 -0.09976813 -0.15632443 0.27280357
-0.040722974 -0.032534577 0.03317387 -0.076911956 0.22257115 -0.006093185 0.14169523 -0.051963024
0.038437612 -0.06304661 0.04121171 -0.03719568 -0.09106759 0.022999037 -0.1410387 -0.15475634
-0.108399116 -0.07502947 0.08159899 -0.18146795 -0.12147809 0.13220488 0.059134636 0.20828082
-0.025176559 0.07460998 -0.20403075 0.14723362 0.060020458 0.057375774 0.068046935 -0.05001227
0.20431876 -0.10158052 -0.18697506 -0.18742456 0.1554166 -0.0708028 0.008847711 0.093332805
0.006229506 0.08146064 -0.017414914 0.35669234 0.11949625 0.2744733 0.005750383 0.0006926154
-0.016497012 -0.062473793 0.075858966 0.20437573 0.34591362 0.03857978 0.12616526 0.10041684
0.17150804 0.036534492 0.23322257 0.24616699 -0.06406336 0.12804525 -0.009330615 -0.09390546
0.07433029 0.010994726 0.06513634 0.10544642 0.03529705 0.22718054 0.074934974 0.21629336
-0.04955354 0.17508778 0.025513822 -0.054246716 0.07272738 0.10282933 0.053409785 0.1185118
00000000: b639 483e 4466 83bc 1a95 653e 8187 003f
00000010: 3b56 1b3f c2e4 ca3e 3ed7 da3e f028 da3e
00000020: 9b51 573e e11e ac3d 177e 893e 7720 ac3e
00000030: 0e46 863e 3200 7e3e 7a93 013f 70d7 a83e
00000040: 68e7 d73e 5b35 3f3e 175e 7f3e e344 073f
00000050: 64dc aa3d 8ae4 7f3e 8062 e93d 1ad9 e63d
00000060: 28fc 363e f7e0 d73d 92f1 8c3e 1a21 cc3e
00000070: 7d40 993d 4b35 5b3e 7993 183e aa5b 9f3e
00000080: 4a70 223e d93e 1b3e 1a67 a53e 8616 983e
00000090: 2a61 443e a503 513e 7b63 ac3e 6863 9e3e
000000a0: 9261 5ebd 0ed5 343e 8e9e 033a 7ba8 903b
000000b0: 455c 393e bb9d 37be ab13 4e3e fc81 7bbc
000000c0: d07c 063e 0430 693d b63c a93d 605a f83d
000000d0: f884 493d dbe0 6ebd 8873 873e 6e79 c23d
000000e0: 6ddf 213e 3670 863c c09f 86bd ab71 3bbd
000000f0: 708f dd3d 1da0 d33b 7cf8 7cbd 3999 c1bd
00000100: 219a b1bc 4259 5b3e 7cea 0f3e ec16 863e
00000110: cd20 cc3d c97b b53d 8dfa d2bd fd09 543e
00000120: c6a1 683d 1684 22bd e227 583d 5928 b93d
00000130: f759 36bd 3c53 ccbd 8313 20be e9ac 8b3e
00000140: 22cd 26bd fa42 05bd 53e1 073d 0484 9dbd
00000150: b1e9 633e 57a9 c7bb 8e18 113e 2ed7 54bd
00000160: c270 1d3d 951e 81bd 9ccd 283d 7f5a 18bd
00000170: a581 babd 7a68 bc3c 736c 10be 7278 1ebe
00000180: 5b00 debd 0da9 99bd 5f1d a73d bcd2 39be
00000190: 81c9 f8bd b760 073e 2937 723d 9147 553e
000001a0: 123f cebc 1ecd 983d 70ed 50be 69c4 163e
000001b0: 03d8 753d dc02 6b3d 315c 8b3d abd9 4cbd
000001c0: f038 513e 7309 d0bd 6476 3fbe 39ec 3fbe
000001d0: 8725 1f3e 0f01 91bd fdf5 103c 4525 bf3d
000001e0: e220 cc3b d6d4 a63d b9a9 8ebc 61a0 b63e
000001f0: 73ba f43d c487 8c3e b56d bc3b a290 353a
00000200: be24 87bc 85e4 7fbd f25b 9b3d df47 513e
00000210: 971b b13e d505 1e3d 7731 013e 58a7 cd3d
00000220: ce9f 2f3e 31a5 153d e6d1 6e3e 3313 7c3e
00000230: a733 83bd 4b1e 033e 70df 18bc 8151 c0bd
00000240: 7b3a 983d 3923 343c 3466 853d 4bf4 d73d
00000250: a493 103d 04a2 683e 8277 993d 027c 5d3e
00000260: a7f8 4abd 364a 333e 5d02 d13c ce31 5ebd
00000270: 18f2 943d 2f98 d23d 38c4 5a3d 51b6 f23d
