models/deepar_synthetic_Alimentaire/prediction-net-state.pt (torch, 98912 bytes, 11 tensors)

model.param_proj.proj.0.weight f4 [1, 40]
000000 94 95 75 3d cf d1 80 3e 28 be da 3d b1 b1 c2 3e
       0.059957102 0.2516007 0.10680801 0.38026193
000010 28 ed 2e bc d0 83 2f be e1 84 5d be 0f f7 37 3e
       -0.01067666 -0.17140126 -0.2163272 0.17965339
000020 54 96 46 3e d9 b4 28 be 97 df 08 3e 19 20 64 3c
       0.19393283 -0.16475238 0.13366543 0.013923668
000030 80 27 90 3d d6 a3 c5 bd 66 6f 88 be 25 4c 36 3e
       0.07038784 -0.0965039 -0.2664749 0.17802484
000040 1f fb 22 3e 8b 0b 36 be a0 85 3c 3e 77 18 55 3d
       0.15916108 -0.17777841 0.18410349 0.052025285
000050 38 ba 09 3e c3 64 d9 3d c7 f9 dc bd a7 86 a9 be
       0.13449943 0.10614922 -0.10789829 -0.33110544
000060 aa 71 1b 3e 2d 81 a7 3b 0b 3f 5f bd 45 60 0e be
       0.15180078 0.0051118345 -0.05450348 -0.13903911
000070 0f 21 0b bd ed b7 b6 3d 57 54 6b be 39 15 82 bc
       -0.033967074 0.089218 -0.22981392 -0.01587926
000080 59 9b b0 bb 71 74 fc bc 4c 92 76 bd 6e 72 28 3e
       -0.0053896126 -0.030817242 -0.060198113 0.16449901
000090 d4 09 86 3d a4 45 4c be 3a 65 3d 3e b8 82 81 3c
       0.06544843 -0.19948441 0.18495646 0.015809402

model.param_proj.proj.1.weight f4 [1, 40]
000000 59 97 a2 bd 2b d0 c4 bd d0 45 ef bd 3f 49 f2 3d
       -0.079390235 -0.096100174 -0.116832376 0.11830377
000010 63 96 a2 3d e5 da 46 3e 7c 59 2f 3c fb a4 9f bb
       0.0793884 0.19419439 0.010702487 -0.004871962
000020 5e 49 92 3d 84 de 39 bd 79 96 fe bd 11 54 cd 3d
       0.071429 -0.045378223 -0.12431044 0.100258
000030 71 2e fa 3c 57 a8 f5 bd f9 0a 04 be 11 43 17 3c
       0.030539723 -0.11994999 -0.1289481 0.0092322985
000040 f4 dc 63 3d 96 13 17 3e 8e 3f 27 3d 53 4b c1 3d
       0.05563064 0.14753565 0.040832095 0.09438195
000050 2c 7e 94 3c ed 1d c3 3c e7 1c f1 3d ee b5 e4 bd
       0.01812657 0.02381798 0.11773091 -0.11167513
000060 39 50 b4 bd 03 54 fd 3c fd 95 2b 3e 66 22 e2 bd
       -0.08804364 0.030923849 0.16756435 -0.11041717
000070 73 95 31 3e 0e d1 0c be eb 66 be ba 37 bb 17 be
       0.17342167 -0.13751623 -0.0014526522 -0.1481751
000080 e2 c1 c5 3c cd 6a e0 3d 26 59 25 3d 64 e2 d3 bc
       0.024140302 0.10957871 0.04036822 -0.025864787
000090 b5 47 24 be e2 c2 62 bd 33 c5 9b bd 75 5c a2 bd
       -0.16042979 -0.055361636 -0.07605972 -0.07927791

model.param_proj.proj.2.weight f4 [1, 40]
000000 57 9c 96 3d e2 a9 70 3e 96 aa 07 3e 3b 1f 66 3e
       0.07354038 0.23502305 0.13248667 0.22472851
000010 93 69 40 be 16 10 6b be 23 ca 4e be 1c 19 5d 3e
       -0.18790273 -0.22955355 -0.20194297 0.2159161
000020 9d d9 37 3e 4a ad 3d be b2 0d 78 3e f0 e8 79 be
       0.17954107 -0.18523136 0.24223974 -0.24405265
000030 c7 ee 87 3e 42 4a b8 bd 69 2c 3c be 85 fd 24 3e
       0.2654936 -0.089985386 -0.18376316 0.16112335
000040 00 0d 1e 3e 50 61 4d be a1 92 18 3e 34 82 33 3d
       0.15434647 -0.20056653 0.14899684 0.043825343
000050 cb e0 39 3e 84 e8 6c 3e 34 a2 b7 bb a8 1d 33 be
       0.18152158 0.23135573 -0.005604053 -0.17491782
000060 c0 8a 4e 3d 87 d3 61 be 2d 94 c9 3d 06 3c 85 be
       0.05042529 -0.22053348 0.098427154 -0.26022357
000070 5a 86 93 be 24 1a 4c 3e 4e 4f 8b be 4c 85 99 3d
       -0.2881344 0.19931847 -0.27208942 0.074961275
000080 56 70 a8 bd 8b 99 ab 3d b5 df 7d be eb 0d 0a 3e
       -0.082245514 0.08378895 -0.24792369 0.13481872
000090 09 73 4a 3e 29 d1 81 be 0c dd 07 3e 54 a6 92 bd
       0.19770445 -0.2535489 0.13267916 -0.07160631

model.rnn.weight_ih_l0 f4 [160, 21]
000000 05 8b 5c 3e e9 6d 13 3e b7 fc 1b 3c d8 6d b4 bd
       0.21537407 0.14397396 0.009520701 -0.088100135
000010 35 78 2f 3e a8 fc 0b 3d d0 e2 68 bd 54 60 c6 bd
       0.17135699 0.0341765 -0.05685693 -0.09686342
000020 c3 26 ae bd 4a 01 26 3d 43 9e 08 3e d1 88 0c bd
       -0.08503487 0.040528573 0.13341622 -0.034310166
000030 7e 99 49 3d 32 a4 c5 3d 90 be dc 3b 97 1d 94 3c
       0.049218647 0.096504584 0.006736584 0.018080516
000040 40 f2 6f be e3 83 59 bc f1 66 34 3e 9a a5 80 be
       -0.23432255 -0.013276073 0.17617394 -0.25126344
000050 f5 36 9e 3d 77 99 87 3e 8f c1 8e bd 97 38 9e 3d
       0.07725326 0.26484272 -0.06970512 0.077256374
000060 14 5b a3 bb a0 31 f6 3c 60 eb 05 3d 2d 4c c3 3d
       -0.0049852226 0.03005296 0.032695174 0.09536014
000070 fd 5e 12 3e f8 8c f6 3d 47 5d 23 3e 9f d5 a9 3d
       0.14294048 0.120386064 0.15953551 0.08292698
000080 74 a8 2e 3e 74 4d 20 bd 67 1a 6f 3d e2 87 4f bc
       0.17056447 -0.039136365 0.05837479 -0.012666674
000090 55 91 61 3b 86 0c 59 be 13 53 f5 3b 67 94 3a 3e
       0.00344189 -0.21196184 0.00748671 0.18220674
0000a0 69 f7 32 be df b0 ac bb 13 8a 1a 3e 2f 7b b1 bd
       -0.17477192 -0.005270108 0.15091734 -0.086660735
0000b0 d5 d8 b5 bd 33 9c 5a bd 5e 4b 59 bc 2d 07 d0 bd
       -0.08879248 -0.05337162 -0.013262598 -0.10157619
0000c0 28 60 15 3e 5f c4 34 3c 79 38 7c 3c 9b 73 25 3d
       0.14587462 0.011033147 0.0153943235 0.040393453
0000d0 7f d3 22 bd 40 f5 01 3e 3c 31 0b 3c 87 da ca bc
       -0.03975248 0.12691212 0.008495625 -0.024762405
0000e0 bb 46 58 bc b7 11 65 bb 06 8c 9a bd 33 34 bf bb
       -0.013200457 -0.0034953186 -0.075462386 -0.00583508
0000f0 b3 ca 60 3d be d1 2a be d9 18 83 3d 19 02 27 3d
       0.05488081 -0.16681573 0.06401224 0.040773485
000100 da 34 47 3c db 37 22 be 7f d6 c4 bd e6 9e e0 bd
       0.012158597 -0.1584162 -0.096112244 -0.109678075
000110 54 ea 44 be a2 8d b0 bd 5e ff da bd b2 36 34 3b
       -0.19230014 -0.08620764 -0.10693239 0.0027498421
000120 ce ca 31 be 57 b3 c3 bb 94 60 8b be e0 49 c3 be
       -0.1736252 -0.0059723067 -0.2722212 -0.381423
000130 6c 07 f3 3d 0e f3 0f ba 9f 54 05 3c 63 e7 1b bd
       0.1186665 -0.0005491235 0.008137851 -0.038062464
000140 51 a1 29 3c 3e de e5 3c cf a1 91 bd 7e 76 ca 3c
       0.010353402 0.028060075 -0.07110941 0.024714705
000150 45 b1 08 3e 45 e6 ff bd 4b 32 15 be cd 1e ae 3d
       0.13348873 -0.12495092 -0.14569966 0.085019685
000160 fe f6 05 3e ab b4 c0 3e 6f ca 1f 3d 7c aa f8 3e
       0.13082501 0.3763784 0.039011415 0.4856757
000170 6d 4c ef 3e b9 a0 6e 3e e7 63 11 3f 72 6b 05 3f
       0.46737996 0.23303498 0.56793064 0.52117074
000180 f5 b2 1b 3f 28 ee 17 be 9e 7e e6 bb 98 01 2d bb
       0.6081994 -0.14836943 -0.007034137 -0.0026398655
000190 1e a8 39 3d f0 9a 9b bc 84 a1 35 39 b2 44 09 be
       0.045326345 -0.018994778 0.00017321674 -0.13405111
0001a0 5d de e3 3d e8 88 5f 3d 0b ca ee bc e1 81 1a 3e
       0.11126397 0.054573923 -0.029149076 0.15088607
0001b0 df 88 35 3e 0a 88 6a 3e 0e f3 14 3d b6 1f 4c 3e
       0.17727993 0.22903457 0.036364608 0.19933972
0001c0 16 0f 02 3e c4 5d 70 3c 75 82 ce 3d 8c de 29 3e
       0.12701067 0.014670793 0.100834765 0.16588801
0001d0 c5 22 34 3e 16 3d c8 3d c1 83 5a bd a6 d7 26 3b
       0.17591389 0.09777276 -0.053348307 0.0025458126
0001e0 68 1f 92 3c 29 4e df bc 34 df 87 bc 7e a1 22 3e
       0.017837241 -0.02725895 -0.016585924 0.15881917
0001f0 cd 4c bf 3d 6e f1 aa 3d 18 5e d6 bb c7 ff d9 bd
       0.093408205 0.0834683 -0.0065419786 -0.10644489
000200 ca 5b 27 3e ea f3 87 3d bb 7e 01 bd 8a 09 a9 3d
       0.16343608 0.0663832 -0.031615 0.082537726
000210 96 48 13 3e fc 4a fb 3d 76 72 9e bd 4a ab c9 bb
       0.14383158 0.122701615 -0.077366754 -0.0061544525
000220 a2 80 0a 3e 26 c0 d5 3d 5f bd df 3d 1a 71 4f bd
       0.13525632 0.1043704 0.109247915 -0.05064497
000230 e4 fc 5e b9 ed ed 8d bb 61 68 40 3d 74 8d 2e bc
       -0.00021265779 -0.0043313415 0.046974543 -0.010653842
000240 10 2f 64 3e 4b 2e 34 be af 36 17 be e9 d3 c1 3c
       0.22283578 -0.17595784 -0.14766954 0.023660617
000250 0f c3 f3 3d 0d 47 7a 3d 51 0c 22 3e 5a 96 cb 3d
       0.11902439 0.061102916 0.15825011 0.09940787
000260 a1 66 df 3c 3f ed e8 3c 9f 97 12 3e d6 c0 9c bd
       0.027270617 0.02843344 0.14315651 -0.07653968
000270 9f c1 6f bd 34 a4 e2 3d b1 f6 18 3e 5d 21 3d bd
       -0.05853426 0.110664755 0.14937855 -0.046174396
000280 c1 54 a7 3d 1a ee 88 3b 1f 51 9e ba ad e3 ea bc
       0.081704624 0.0041787745 -0.0012078619 -0.028673017
000290 39 cc 64 bc 93 23 af 3d 77 93 b9 be 2d cd 3a 3e
       -0.013964706 0.08551707 -0.3624532 0.18242331
0002a0 c4 6e bc 3d 8d d0 7f 3c cc 62 4f be 01 cb 49 be
       0.09200814 0.015613687 -0.20252532 -0.19706346
0002b0 15 2c a8 3c be 21 04 be 18 07 6a bd 87 e3 3c 3e
       0.020528832 -0.12903497 -0.05713567 0.1844617
0002c0 33 84 18 3e 9a 4c 83 3e 3a e2 88 be f4 81 92 be
       0.1489418 0.2564438 -0.26735097 -0.2861477
0002d0 55 e5 f1 be 88 74 97 bc 49 0b a1 3c 1b d6 8d 3c
       -0.4724528 -0.018488184 0.019658701 0.017314008
0002e0 ba 16 de 3c aa 6b 86 bc cb cf 1f 3e 92 fc a8 bd
       0.027110446 -0.01640876 0.1560661 -0.08251299
0002f0 44 64 b6 3d 24 15 0c bd 52 a6 ab 3d 64 9f a3 bd
       0.08905843 -0.03419985 0.083813325 -0.07989386
000300 12 4e c7 3d b9 ee a3 3d 1d d6 2e 3d dc a3 e2 bd
       0.097316876 0.08004517 0.042684663 -0.1106641
000310 c9 97 ad 3d 44 47 73 bd 94 8e 18 3e 1d 69 02 3e
       0.08476216 -0.059394136 0.14898139 0.1273541
000320 99 fa c7 3d 34 4d 68 3d 64 a6 9f bc 8e 21 7a 3b
       0.097645946 0.05671425 -0.01948852 0.0038166973
000330 78 70 32 bc 42 f9 b4 bd ec 89 39 3c dd 86 ca 3d
       -0.010891072 -0.08836605 0.011324387 0.098890044
000340 54 20 c4 be 79 fd 07 3e 66 52 6a 3e 00 f2 80 bb
       -0.38305914 0.13280286 0.22882995 -0.0039350986
000350 04 a1 80 3c bf a9 00 bd a0 b3 d2 3c c1 54 69 bd
       0.015701778 -0.031411882 0.025720417 -0.056965593
000360 f0 9d 7c 3d 91 eb 8d bd 61 9c 8c 3d bf 9a 07 3b
       0.06167406 -0.06929696 0.068657644 0.00206916
000370 ac 66 17 3e f6 a9 2e 3e 1d 43 03 3e b4 7d 55 bd
       0.1478526 0.17057022 0.1281857 -0.052121833
000380 d3 f8 8a ba b1 35 a0 bc 4f f6 4a be ea b8 08 bc
       -0.001060272 -0.019556852 -0.19820522 -0.008344868
000390 8e e8 e1 3c f6 3f 34 bf 92 96 4d 3d 33 ef 03 3e
       0.027576711 -0.70410097 0.050192423 0.12884216
0003a0 06 4d b5 3d 86 15 05 3e fa a5 18 3e d6 e8 25 3c
       0.08852582 0.12996492 0.14907065 0.010126313
0003b0 9e e4 8a 3d a6 33 c6 3b 3c cc 35 bd 19 1c 24 3e
       0.067818865 0.0060486374 -0.044384226 0.16026343
0003c0 71 1b 1a 3e ef 6a 27 3e ae bb 18 3e 51 6e 04 3e
       0.1504953 0.16349386 0.14915344 0.12932707
0003d0 f4 2e 96 be 2c 10 5c bc ca 1e 58 bc 17 af d2 bd
       -0.29332697 -0.01343159 -0.013190934 -0.10287302
0003e0 9f 53 9b 3c e9 1c 80 3e 4f 7b f2 be 1e 73 86 3c
       0.018960772 0.25022057 -0.47359702 0.016412314
0003f0 23 cf 4b 3d 59 90 6f bd d6 38 6a 3d 18 92 e3 bd
       0.049758088 -0.05848727 0.05718311 -0.111118495

model.rnn.weight_hh_l0 f4 [160, 40]
000000 bb c1 cf 3d 02 96 79 bb e9 9e ef bd d2 5a bb 3d
       0.10144373 -0.0038083796 -0.117002316 0.09148182
000010 02 aa 7b bd a3 37 0a 3c fd 98 b9 3c c7 54 6f bd
       -0.06144143 0.008436116 0.022655958 -0.05843046
000020 28 3f d6 bd e1 a4 9c 3b 68 d8 1c bd 1e c2 1e be
       -0.10461265 0.0047803973 -0.03829232 -0.15503737
000030 b3 7f c7 bd 56 7f 42 3d 63 87 db bd 64 77 64 3c
       -0.097411536 0.04748472 -0.10719182 0.013944481
000040 52 09 93 3c be 15 1c 3d 82 49 d1 bd c3 ae e8 3d
       0.01794878 0.038106672 -0.10219099 0.11361458
000050 19 c7 57 bd be ee ab 3d 16 e1 83 3c df 8e f5 bd
       -0.05268011 0.08395146 0.01609854 -0.11990141
000060 de 87 28 3d f3 bb 66 3d e1 71 e8 bd b1 00 8c 3d
       0.041145198 0.056331586 -0.11349846 0.068360694
000070 2f e5 69 3d 42 1c 9c 3d 37 5c ca 3d 13 07 0f be
       0.057103332 0.07622577 0.0988087 -0.13967542
000080 42 e6 2b 3e 57 ea c9 bd 63 7c f7 bd 66 94 a6 3d
       0.16787055 -0.0985915 -0.12084272 0.081337735
000090 c1 b1 11 3c 94 ff 52 3d 79 96 32 3e f7 6d f4 bd
       0.0088924775 0.05151327 0.17440213 -0.11935037
0000a0 4c aa 52 bd 7a 94 d3 3d e3 74 21 3e 1e fe eb bd
       -0.05143194 0.10331054 0.15767245 -0.115230784
0000b0 6b ea 4a bd 37 db 19 be 6d ad 95 3d 25 47 75 bd
       -0.049539965 -0.1502503 0.07308469 -0.0598823
0000c0 11 cf 22 3e 35 86 0d be 26 4c 9e 3d 53 ad 06 be
       0.15899302 -0.13820727 0.07729368 -0.13152055
0000d0 4e aa 71 3d 60 8e 13 be 71 22 58 bc c6 d8 b8 bd
       0.059000306 -0.1440978 -0.013191805 -0.09025721
0000e0 a8 fd 88 bd c3 54 93 3c 27 d7 1f 3e db 79 a6 3d
       -0.06689006 0.017984753 0.15609418 0.08128711
0000f0 23 06 33 3d 7f 2b ec bd 72 c3 60 3d f3 47 7b 3d
       0.043707024 -0.11531734 0.05487389 0.061347913
000100 3e 25 57 3d 66 45 05 be 6a c1 12 be 16 de 82 bc
       0.05252575 -0.13014755 -0.14331594 -0.01597504
000110 d6 ca 7f 3d 92 99 9f 3d ba b7 45 3d e1 3e db 3d
       0.0624493 0.07792963 0.04827092 0.107053526
000120 9b ff 55 bd 7f 32 65 bd 13 7e 02 3e f7 1d 93 3b
       -0.052245717 -0.05595636 0.12743406 0.004489656
000130 ad af 1b be 96 54 12 be 83 e2 97 bc 72 28 9e bd
       -0.15203734 -0.1429008 -0.018540626 -0.07722558
000140 2d 6e cc bd 32 b3 00 3e 5c e2 77 3d f1 60 ce bd
       -0.09981952 0.12568358 0.060518607 -0.10077084
000150 08 9f 85 bb 13 f3 db bd 53 1f c9 bd 26 e5 c9 3c
       -0.004077796 -0.10739722 -0.09820428 0.0246454
000160 bb fe 2f bd a0 21 14 be 29 3b e3 bd 9b 4b 04 be
       -0.04296754 -0.14465952 -0.11095268 -0.12919466
000170 1c 89 2c bd 69 c3 8e bd aa 5e 15 be 1e 42 06 be
       -0.042122945 -0.06970865 -0.14586893 -0.13111159
000180 10 2c 3c bb c3 c7 e8 bc db b1 1a 3d 26 36 9a 3d
       -0.0028712787 -0.028415566 0.037767272 0.07529859
000190 9c 8c eb bd 6c c9 1e 3e f9 16 c6 bd ff 8a 8d 3d
       -0.115014285 0.15506524 -0.096723504 0.06911277
0001a0 29 79 c3 3d bf 22 e7 3d c3 91 11 bd 3b 95 ae 3d
       0.09544594 0.11285924 -0.0355394 0.08524557
0001b0 e7 58 c5 bc c0 2f 97 bd 21 8b af 39 bd 4e 3d bd
       -0.024090244 -0.073821545 0.0003348226 -0.04621767
0001c0 7e 0f ee bd 15 3c c9 bb a5 b5 09 be 87 00 60 3d
       -0.11624049 -0.0061411955 -0.13448198 0.054688003
0001d0 52 a7 b0 bd 1e 8c bb 3c 78 b4 13 be ce 61 af 3d
       -0.08625664 0.022893962 -0.14424312 0.08563577
0001e0 6d 89 b1 3d 53 37 06 3b 3f 98 26 be 62 c0 0f 3e
       0.0866879 0.0020479753 -0.16269015 0.14038232
0001f0 c1 0d 1a 3f 55 d7 00 3f c2 51 08 bc 62 85 f6 bd
       0.60177237 0.5032857 -0.008320274 -0.120371595
000200 7d 65 9b 3d 3d 83 ef 3d 8f 2b b5 bc 9b 43 89 bd
       0.07587717 0.116949536 -0.022115497 -0.06702348
000210 60 4a 57 3e d0 5b c5 3d 05 7d cd 3d 56 fa 64 3d
       0.21024466 0.096366525 0.10033611 0.0559028
000220 cf 3f 28 3e d7 e7 d6 3d a8 3d 1d be f7 f2 13 3e
       0.16430591 0.10493439 -0.15355551 0.14448152
000230 31 d2 30 bc 26 8c 19 be 31 d2 e2 3c 14 43 bb 3d
       -0.010792301 -0.14994869 0.027688118 0.091436535
000240 47 dc fe 3d 8d 9b f5 3d 4a 9f 1c 3d cc 4b e7 bd
       0.12444358 0.119925596 0.038237847 -0.11293754
000250 b2 27 66 be 8e 31 00 be c9 e3 38 bd da ba 02 3e
       -0.2247608 -0.12518904 -0.045139108 0.1276659
000260 1c 75 4e ba cb 43 3d 3c 54 aa 31 3d b1 5e 11 3e
       -0.0007875727 0.011551808 0.04337533 0.14196278
000270 75 1d dd be a1 2b 0b 3e 89 b0 9a 3d a4 6f 43 3e
       -0.43186536 0.13590862 0.07553203 0.19085556
000280 60 3f d6 bd 74 08 05 3d 6f 32 b0 3d 31 4f b6 bc
       -0.104613066 0.032478765 0.086033694 -0.022254558
000290 1c a9 b3 3c 09 75 99 3e 2d 1f be 3b c7 18 19 be
       0.021931224 0.29972103 0.0058020563 -0.14950858
0002a0 18 0b b7 3c 83 d0 07 bd c4 10 c1 bd ea dd 6e 3e
       0.022344157 -0.033157837 -0.09427026 0.23326841
0002b0 f9 f9 09 3e cb 29 ca be 5e 9b 20 3e bc 3e 41 3d
       0.13474263 -0.3948501 0.15684268 0.04717897
0002c0 9b b8 96 bd ec ea 79 be 9a 9e 71 3d 69 15 42 3e
       -0.073594294 -0.24406022 0.058989145 0.1895348
0002d0 2f be 0e be 15 83 f4 bd 23 00 1a be b4 44 f7 3d
       -0.13939737 -0.119390644 -0.15039115 0.12073651
0002e0 cd 78 f9 bd 87 97 aa bd 35 43 64 bd 27 ae 00 3e
       -0.12181244 -0.08329683 -0.055728156 0.12566434
0002f0 ce 11 0b 38 b2 96 07 bd d3 95 9f 3d 24 de 1d 3e
       3.3156764e-05 -0.0331027 0.077922486 0.15416771
000300 3c 3b b4 bd fe 4d 25 be 8d 33 01 be 29 df 96 bd
       -0.088003606 -0.16143033 -0.12617321 -0.07366783
000310 28 fc 11 3d d2 4e c2 3d c8 3e 90 bc 15 78 c3 3b
       0.035640866 0.0948769 -0.017608061 0.0059652426
000320 ee 98 3d be 7a d5 c5 bc 36 1d 86 bd 95 d5 17 3e
       -0.1851537 -0.024149645 -0.0654854 0.14827569
000330 58 bb c5 bb 4b 72 55 3d a7 06 f6 bb a7 d0 17 be
       -0.006034296 0.05211095 -0.0075081172 -0.14825688
000340 c8 e1 74 3e d0 8a 34 be ef ca 62 be 8d 28 8c bd
       0.23914254 -0.17631078 -0.22147726 -0.06843672
000350 fc b8 df 3c 50 da 94 3e 47 db 73 3e 8f 82 5a bd
       0.027309887 0.2907281 0.23814116 -0.053347167
000360 22 19 77 3e 21 10 b1 bd 31 9f 34 be 0a 82 05 3e
       0.24130681 -0.086456545 -0.17638852 0.13037887
000370 26 d9 a9 bd b0 9c a9 bb 33 fc a5 be 81 c8 12 bd
       -0.08293371 -0.0051761493 -0.32418975 -0.035835747
000380 30 c0 aa 3d 38 1d 2e 3e 28 08 00 bd df ca 50 bc
       0.08337438 0.17003334 -0.03125778 -0.012743681
000390 31 78 94 3d e4 88 39 3c f3 96 80 bd 8c f4 ba bd
       0.07249487 0.011324141 -0.06278791 -0.09128675
0003a0 0e 0b 0e bd 0f 0b fa 3c ac d2 40 be d3 8e 2c 3d
       -0.03467851 0.030522851 -0.18830365 0.042128395
0003b0 58 96 01 3d 6b 6b 73 3e 3f bc 81 3d f8 37 76 3e
       0.03163752 0.23771445 0.06334733 0.24044788
0003c0 c3 50 ed 3c 5e 15 37 be 91 59 9c bd 38 a7 3d be
       0.028969174 -0.17879245 -0.07634271 -0.1852082
0003d0 aa 43 8d bc d1 7f bc 3d 55 1c 62 be 6b d8 3d be
       -0.017244179 0.092040665 -0.2208112 -0.18539588
0003e0 60 b3 32 3d 57 3f 58 bd e1 79 2b bd 35 55 17 bd
       0.043628097 -0.05279478 -0.04186428 -0.036946494
0003f0 c3 11 00 3e 4a ac 8f bd 57 dd 91 3d 55 06 de 3d
       0.12506776 -0.070152834 0.07122295 0.108410515

model.rnn.bias_ih_l0 f4 [160]
000000 67 7c 1f 3e 80 c5 37 3e b1 db 9a 3d 20 3f 7e 3e
       0.155748 0.17946434 0.07561434 0.24828768
000010 26 d3 42 3e be b5 65 3e ff 0a fa 3d 9a 54 84 3c
       0.19025859 0.2243261 0.122091286 0.016153622
000020 31 ad a3 bd 83 f3 c3 3d 85 34 a3 3c 70 b1 4f 3e
       -0.07992018 0.095679305 0.019922504 0.20282531
000030 53 5b 77 3e 7d 42 83 3d da 00 6c 3e e2 63 d5 3d
       0.24155931 0.06409166 0.230472 0.10419442
000040 4e 35 2c 3e 4c c1 c7 bc d0 8c 9c 3c 40 44 81 3e
       0.16817209 -0.024384163 0.019110113 0.25247383
000050 6f 3c e5 3d 04 bf 1f 3e b9 63 8e bc c6 50 af 3d
       0.111931674 0.1560021 -0.017381536 0.08560328
000060 fa f4 55 3e 6b 33 ec 3c 69 0c 5d 3e e8 2d 4a 3e
       0.20894232 0.028833112 0.21586765 0.19744074
000070 26 42 3d 3e 72 12 45 bd 87 eb 13 3e a0 71 78 3d
       0.18482265 -0.048113294 0.14445315 0.060655236
000080 06 35 09 3e b0 04 18 3d 72 7d 6e 3e bf 6c 76 3d
       0.13399133 0.037113845 0.23290041 0.060162302
000090 44 69 2a 3d 4c 98 a4 3e 39 98 4c 3d fb 3b f4 3d
       0.041604295 0.32147443 0.04994986 0.11925503
0000a0 87 9d 2a bd 42 35 78 bd 81 78 d4 bd 8a 96 20 3d
       -0.041654136 -0.060597666 -0.10374547 0.039206065
0000b0 dc 7e 66 be 35 dd 81 3b 5a 46 87 3d 41 05 fd 3d
       -0.2250933 0.0039631375 0.06605215 0.12354518
0000c0 43 b6 0b 3e 08 31 9d bd b5 0a ec 3d 30 e6 06 be
       0.13643746 -0.076753676 0.1152548 -0.13173747
0000d0 32 b9 22 be 1c d2 1b 3d 52 5b eb 3d ed 9b 9e 3d
       -0.15890959 0.038042173 0.11492027 0.07744584
0000e0 0d 4b fe 3d 0b be 90 3d e5 46 4c 3b 55 49 40 3d
       0.124166586 0.07067498 0.0031170186 0.046944935
0000f0 bb 6a 3d bd f9 5d f1 3d f4 f7 81 bd b9 60 1a bd
       -0.046244364 0.11785502 -0.063461214 -0.0376899
000100 37 a6 b4 3d 47 18 30 3e 1c b1 c5 3d 55 d7 bd 3d
       0.088207655 0.17196761 0.096529216 0.09269587
000110 d4 b6 11 be eb 96 05 be 13 17 5d bb 5e b4 10 3e
       -0.142299 -0.13045852 -0.0033735677 0.14131305
000120 a9 fd 5f bd 74 a4 04 bc c8 1d 09 3e 88 87 20 3e
       -0.05468527 -0.008095849 0.13390267 0.15676701
000130 b1 a9 a2 bd fb b3 1c 3e 7e 2f 89 3d 2b a1 f4 3d
       -0.07942522 0.15303032 0.066985115 0.11944803
000140 56 b1 8a be 05 70 60 3d fa f8 89 3d c0 12 07 be
       -0.27088422 0.05479433 0.06736942 -0.13190746
000150 13 71 d0 3d 3b 4d a8 3b 24 b4 4d bb 31 69 2d be
       0.10177817 0.0051361597 -0.003138789 -0.16934659
000160 ad 37 b5 3d cb 46 f9 bd a4 9a 19 be 43 66 6a bd
       0.0884851 -0.12171706 -0.15000397 -0.05722643
000170 4c 3d 7b bc 29 6e 35 bd a9 92 97 3d 51 fa 8a 3c
       -0.0153344385 -0.04429451 0.0740102 0.016965063
000180 69 11 4d 3e b6 79 0f be 79 d4 22 be 39 8c fe 3b
       0.20026173 -0.14011273 -0.15901364 0.0077681807
000190 fe 0b be bd 47 16 b7 3d 15 1a 88 bc f3 f8 25 bd
       -0.09279631 0.08939796 -0.016614 -0.04052062
0001a0 a5 33 bd 3d df 6e 34 3e 3c 53 06 be ba ca 91 3e
       0.09238366 0.17620419 -0.13117689 0.2847498
0001b0 b0 75 0a 3e ff e6 1b 3e b5 02 38 be c4 25 0c ba
       0.13521457 0.15224837 -0.17969783 -0.00053462037
0001c0 32 41 65 3c 93 29 1e be 89 98 42 be 10 c5 f3 3d
       0.013992595 -0.15445547 -0.190035 0.11902821
0001d0 62 03 aa bd f7 54 be 3c 99 36 06 bd 01 ef 14 3d
       -0.083014265 0.023233874 -0.032766912 0.036360744
0001e0 aa 9d 82 bd 3d 18 5f ba d5 c3 ec bd d0 8e 99 bd
       -0.06377728 -0.00085103867 -0.115607895 -0.074979424
0001f0 31 1c 61 3d 92 97 5e 3d 1a cf cb bd 72 0e d4 bc
       0.054958526 0.054343767 -0.09951611 -0.025885794
000200 b2 8f a7 bc 2d f9 43 3e e9 c2 0b 3e 84 65 c6 3e
       -0.020454261 0.19138022 0.13648571 0.38749325
000210 87 44 5a 3e b0 d4 2f 3e aa f5 14 3e 45 05 5a bd
       0.21315204 0.17170978 0.14546838 -0.05322768
000220 6f ad b6 bd 1a d1 06 be c4 00 d2 bd d9 48 21 3d
       -0.089197986 -0.13165703 -0.10254052 0.039376114
000230 c8 04 f4 3d 38 dc b0 3d 74 c9 55 3e 9b 1b c9 3d
       0.119149745 0.086357534 0.2087763 0.098197185
000240 e7 24 05 bd 2f 94 60 3c ea 99 bb ba 31 9b 54 3d
       -0.032505896 0.013707205 -0.0014312838 0.051905815
000250 e8 ad ef bd 47 d7 2f 3e 03 1e 0f 3e 2b 50 51 3c
       -0.11703092 0.17171966 0.13976292 0.012775461
000260 b5 e0 f0 3c 22 b3 7d 3e 60 d5 a7 3d 8b 05 e6 3d
       0.029404024 0.24775365 0.08194995 0.11231526
000270 17 1d d1 3c 4a 2e 15 bd af 54 bd 3d 2c 6e 7d bd
       0.025526566 -0.036421098 0.09244668 -0.061872646

model.rnn.bias_hh_l0 f4 [160]
000000 b6 78 37 3e a0 93 42 bc bd ab f0 3d be d8 10 3e
       0.17917141 -0.011876017 0.117515065 0.1414518
000010 e2 a7 13 3e 4a 7a 1d 3e 38 70 48 3e ce a1 c0 bd
       0.14419511 0.15378681 0.19574058 -0.09405862
000020 eb 39 3b 3e c4 c7 77 3e cd f6 1f 3e dc f7 bf 3d
       0.18283813 0.24197298 0.15621491 0.09373447
000030 a4 fc d2 3d 47 13 81 3e 4f 82 85 bc fa de 13 3d
       0.103020936 0.2521002 -0.016297488 0.03610132
000040 ee 8a 9e 3e c6 d6 12 3d 48 ea b9 bc a2 85 1c 3e
       0.3096537 0.035849355 -0.022694722 0.15285352
000050 33 bc 5f 3d f6 a4 96 bd b9 71 98 bd dc ce 81 3e
       0.05462284 -0.073556826 -0.07443566 0.25353134
000060 96 c7 1e 3d 5a 20 91 bb 67 d4 85 3d 25 fd 99 3d
       0.03876456 -0.0044289054 0.06534653 0.075189866
000070 75 98 13 3e 58 8b 77 bd e9 a8 2b 3e 38 ee 4e 3e
       0.14413626 -0.060435623 0.16763653 0.2020806
000080 eb dd d1 3d ee a8 a9 3e 6c b7 4f 3e 4d a1 b2 3d
       0.102474056 0.33136696 0.20284814 0.08722172
000090 68 f0 72 bd 86 93 9c 3e cc 9a 4d 3d d0 73 09 3e
       -0.0593113 0.305813 0.050196454 0.13423085
0000a0 c5 d0 ec bc ad 14 f4 bd 3c 03 e9 3c f3 8e 79 3d
       -0.028908143 -0.11918006 0.028443925 0.060927343
0000b0 94 bf 74 be 52 1f de 3c 88 86 08 be d8 5f ed 3b
       -0.23901206 0.027114544 -0.1333257 0.0072440915
0000c0 cb 15 25 bd 02 08 82 bd ef 42 87 3c c8 0a 67 be
       -0.040303987 -0.063491836 0.016511409 -0.22562706
0000d0 87 a0 52 be 9c 75 ff bd 7b de 22 3e 6b 33 0d bc
       -0.20569049 -0.12473604 0.15905182 -0.008618216
0000e0 64 49 b5 bd a9 6d aa 3d 47 0d 44 3e 44 ad 45 3d
       -0.08851889 0.08321697 0.1914569 0.048260942
0000f0 d9 ea 17 be 77 79 12 3e 76 fe 55 bd 47 9f 8d bb
       -0.14835681 0.14304148 -0.052244626 -0.004321966
000100 09 35 de 3c 41 4b c6 3d 23 dc 8e 3d 7b 50 3a 3e
       0.027124899 0.09682322 0.069755815 0.18194763
000110 96 a0 22 3c 5c 84 90 bd 41 7c ee bd 94 39 f0 3d
       0.009925982 -0.070564955 -0.11644793 0.11729732
000120 68 2d bc 3d 0d 96 6c 3e 5c 3f 06 3e 0d 82 4c bd
       0.09188348 0.23104115 0.13110107 -0.049928714
000130 e4 2a ef bd 14 4a 36 3e 38 9e 16 3e 03 8d df bd
       -0.116781026 0.17801696 0.14708793 -0.10915568
000140 c3 86 86 be 80 86 d2 bd 61 6e 14 3d 9e 47 aa bd
       -0.2627469 -0.1027956 0.036238078 -0.08314441
000150 97 88 a7 3d 83 36 c6 39 b4 87 ab 3c c0 9c a6 3d
       0.08180349 0.00037806117 0.020938732 0.081353664
000160 09 99 69 bd c4 6c 9d 3c 9c 60 eb 3b 77 4f 80 bd
       -0.05703071 0.019216903 0.0071831476 -0.06265157
000170 26 8a 30 3d 81 bc f4 3d cd 7a fd 3d 06 52 1b 3e
       0.0431005 0.11950017 0.12376938 0.15168008
000180 86 78 6e 3e 60 42 1f be b8 14 35 be 80 41 4d bd
       0.23288164 -0.15552664 -0.17683685 -0.050111294
000190 00 f6 00 bd 9a 97 4f 3d ed 02 1d be 25 33 5b 3d
       -0.031484604 0.050681688 -0.15333147 0.053515572
0001a0 f9 e1 c7 bd 94 4a 3c bd b0 3f 44 3d 96 3b 5d 3e
       -0.09759898 -0.04596956 0.0479123 0.21604761
0001b0 d8 53 a5 3d 5a 1c d2 bd 48 fa be bd e3 8e ee bd
       0.080726326 -0.10259314 -0.09325081 -0.11648347
0001c0 b7 a0 ea 3d ed ce 63 bd 43 8f 19 be d4 44 53 3e
       0.11456435 -0.05561726 -0.14996056 0.20631725
0001d0 59 d3 bb 3c a8 0d a5 3d 69 7b e2 3b 2b 96 70 bd
       0.022927927 0.08059245 0.0069116843 -0.05873696
0001e0 fc be 31 3e fc 6c 0f 3d 24 26 c9 bd 02 c4 77 3d
       0.17358011 0.035016045 -0.09821728 0.060489662
0001f0 64 c3 98 3d 02 36 b4 3d a7 eb c5 bd 86 e6 c1 bc
       0.07459143 0.08799364 -0.09664088 -0.023669492
000200 37 0b 83 3d e0 58 89 bd 10 63 a6 3c 55 31 53 3e
       0.063986234 -0.06706405 0.020310909 0.20624287
000210 6d 70 89 3e 8d d8 0d 3c 38 8e 35 3e cc 37 d1 bb
       0.26843587 0.008657587 0.17730033 -0.0063848253
000220 9e 4c b0 3c da d6 17 bd 82 36 bf 3d 16 95 85 3d
       0.021520909 -0.037070133 0.093365684 0.065225765
000230 a5 06 d1 3d 9b 41 08 be cd 11 f6 3d ce 37 6f 3d
       0.102063455 -0.13306277 0.12015114 0.05840283
000240 1d 50 05 be 88 ee 52 3e 2a ac 23 bd 7a cc 22 bb
       -0.13018842 0.20598805 -0.03995911 -0.0024841116
000250 69 37 d3 3d a0 6a fd 3c 7e 8d 40 bd 5a 97 05 3e
       0.10313303 0.030934632 -0.047009937 0.13046017
000260 7e b2 29 3e 0a 1a da 3d 0c 39 4b bc f7 2c d1 3d
       0.16571996 0.10649498 -0.012403738 0.102136545
000270 84 da e4 bc 81 4e 05 3e 72 2e 17 3e ac f2 7f b8
       -0.027936228 0.13018228 0.14763811 -6.1022743e-05

model.rnn.weight_ih_l1 f4 [160, 40]
000000 bd 3c 7a bd 11 f3 a9 bd b7 30 32 be ff f9 ee 3c
       -0.06109308 -0.08298314 -0.17401396 0.029171942
000010 a9 05 34 bd 3b 46 ef bb af 6d f2 3c c7 3f 0f be
       -0.04395071 -0.0073020733 0.029593317 -0.13989173
000020 5c 94 51 3b ed 2d f3 bd 09 f8 54 be b3 5b 77 bd
       0.0031979298 -0.11873994 -0.20797743 -0.060390186
000030 65 51 b4 3b a6 48 11 3e 0e ae 52 bc 73 a5 b4 bd
       0.005502867 0.1418787 -0.012858881 -0.088206194
000040 c2 fa 06 3d 4f da 50 3e b9 42 58 be 3e 6a d6 bd
       0.032953985 0.20395778 -0.21119203 -0.10469483
000050 b7 ad 93 bc e3 25 80 bd f8 8c 54 3d d4 d6 10 bd
       -0.01802717 -0.06257226 0.05189225 -0.035361126
000060 c6 1e c6 bd cb 52 67 3d 58 3b 23 bd 77 1a 3b bd
       -0.09673838 0.056475442 -0.039851516 -0.045679536
000070 1f 83 f0 bd 4e 75 48 3d 1a fa 64 bd 99 0a 04 be
       -0.11743759 0.048939995 -0.055902578 -0.12894668
000080 93 52 3d bb 98 5c 02 be 8a 5b 83 bd 6b 13 ab 3b
       -0.002888833 -0.12730634 -0.06413944 0.0052208207
000090 b9 88 71 be 15 da ea 3d 31 9c de 3d 48 ab 09 3e
       -0.23587312 0.11467377 0.10869635 0.13444245
0000a0 11 95 ab 3b 4f 05 e2 3c 6a 16 21 be 77 87 13 be
       0.005236276 0.027590422 -0.15731207 -0.14407144
0000b0 a8 f0 b2 3d b1 9a 9f 3c 57 31 25 be 07 68 08 be
       0.08737308 0.019482942 -0.16132103 -0.13320933
0000c0 16 55 ae bd 37 4a b6 3d 82 cd 44 bd ff a6 a1 3d
       -0.085123226 0.08900874 -0.04804755 0.0789318
0000d0 e2 38 49 3e 2d 99 fb 3d 2a 4f 18 bd 24 1e b7 3d
       0.19650605 0.12285075 -0.03718487 0.08941296
0000e0 45 dd 37 bd e8 3c b7 3d ce 6a fb bd 0f ef d0 3c
       -0.044888753 0.08947164 -0.12276231 0.025504617
0000f0 f5 02 18 be 3a 30 ea 3b 21 57 8b 3d 53 46 67 3c
       -0.14844878 0.0071468623 0.06803728 0.014115888
000100 cb 43 80 3d 27 3f fe 3d 99 bd ed 3d ee 5f 3f 3e
       0.062629305 0.12414389 0.116084285 0.18688938
000110 15 f2 de 3d 00 d5 e5 bd e1 e1 09 be a1 24 be bd
       0.10886017 -0.11222267 -0.13465072 -0.0928433
000120 01 13 42 bc 1f 46 0a be d0 e6 3c bd 76 e8 c6 bd
       -0.011845351 -0.13503312 -0.046118557 -0.09712307
000130 58 25 a4 3b ea 94 5a 3d a0 da 64 bd 5f b8 70 3d
       0.0050093345 0.05336467 -0.05587256 0.05876958
000140 bc d3 1b bd 25 fd cf 3c 70 0c 9f be a9 1d c9 3d
       -0.038043723 0.025389263 -0.31064177 0.0982011
000150 bc 3e 34 3e 96 f4 58 3d dd a8 98 bd 72 41 13 be
       0.17602056 0.05296763 -0.07454083 -0.14380434
000160 04 f9 a4 be 2d 20 9e bd 79 ae 3a be ce bf cc 3a
       -0.32221234 -0.07720981 -0.18230619 0.0015621127
000170 1f 4c 46 3e 4a fe ac 3e 1f 73 8c 3d 11 ab ae 3c
       0.19364975 0.33787757 0.06857895 0.021321805
000180 88 8b 72 3d 0e b8 89 3d a5 83 7a be 47 1d 8d 3d
       0.0592151 0.06724559 -0.24464281 0.0689035
000190 7c 9b e3 3b c5 bd 59 3e 91 7c b9 be 2c 9b 1e 3e
       0.0069460254 0.21263798 -0.3622785 0.15488881
0001a0 03 00 87 3e 1c 0f ea 3d 99 d6 80 be a8 5a 1e bd
       0.26367196 0.11428663 -0.25163725 -0.038660675
0001b0 8e 70 94 be 54 63 a5 3d d4 ef 77 bd c8 e2 b6 3c
       -0.28992122 0.08075586 -0.060531452 0.022324935
0001c0 2b 22 4c 3e 27 d5 42 be ff ab 37 ba 1e 58 3a 3e
       0.19934909 -0.19026624 -0.00070065254 0.18197677
0001d0 73 d1 77 be 93 d9 4b 3e 87 e9 a6 3c 92 f1 b5 3d
       -0.24200992 0.19907217 0.020375026 0.088839665
0001e0 17 45 bd 3d d1 12 1c 3d 32 ae be 3d da 0b 09 be
       0.092416935 0.038103882 0.09310569 -0.13383427
0001f0 e2 b2 aa bd 0a c9 76 bd 05 42 b0 bd 65 2f a9 bd
       -0.083349004 -0.06025032 -0.08606342 -0.08260993
000200 15 3d 00 be 41 74 07 be e9 a2 45 bd 2e 54 9e 3e
       -0.12523301 -0.13227941 -0.048251066 0.309236
000210 01 3e 63 be 2f 45 a6 bd 0a 70 ed 3d d8 84 5b bd
       -0.22191621 -0.081186645 0.115936354 -0.053593487
000220 68 09 80 bd 50 92 96 3d 51 32 ab bd 9b 11 25 3e
       -0.06251794 0.07352126 -0.083592065 0.16119997
000230 b5 d9 8b bd 71 19 a5 bd 1e 0a 60 bd fb 26 60 3c
       -0.06828634 -0.08061493 -0.05469715 0.013681169
000240 10 32 5e bd e5 18 a3 3d fe e5 c6 3d 79 25 d8 3d
       -0.054246962 0.07963733 0.09711836 0.10554022
000250 9b ce b8 bd 13 15 07 3e cf d3 30 3d 4a d1 9c bd
       -0.09023782 0.13191633 0.043170746 -0.07657106
000260 a1 4c e9 3d b3 81 21 be b0 ca a9 3d 0f c9 12 3e
       0.11391569 -0.15772133 0.08290613 0.1433451
000270 ef 07 08 bd b9 f8 cf bc 69 d8 02 3e 2a 38 25 3e
       -0.03321069 -0.025387155 0.12777866 0.16134706
000280 fb cd 33 be ef 25 ec bd 64 70 a4 be 8e 6c ab bd
       -0.17559044 -0.11530673 -0.32116997 -0.083703145
000290 2f 8e 68 3d ea 00 81 3e 8d 07 6f be 1c 45 80 bd
       0.05677622 0.2519601 -0.23342724 -0.062631816
0002a0 93 17 2b be 02 8e ad bd f7 86 5c be 6b cf c0 3e
       -0.16708212 -0.084743515 -0.2153586 0.37658247
0002b0 66 37 6b bb e0 79 09 3e f8 29 53 3d bd df 56 3e
       -0.0035891174 0.13425398 0.051553696 0.20983787
0002c0 98 4e 0a bd 48 d9 26 bd 3b de 63 3d e5 36 81 3e
       -0.03376636 -0.04073456 0.055631857 0.25237194
0002d0 09 3c 1d bd 94 a8 b0 3d f1 77 58 be f9 86 a2 3e
       -0.038387332 0.08625904 -0.21139504 0.317436
0002e0 73 1e 37 3e df f4 fc 3d f8 f0 1e be d8 6e b3 3d
       0.17882709 0.12351393 -0.1552161 0.08761376
0002f0 72 c3 1b bd 00 6c 58 3e 67 7c 59 be 82 25 a0 3c
       -0.038028188 0.21134949 -0.21238862 0.019549135
000300 1d ef a9 3e d0 e1 3c be 34 b5 a9 be 46 9e e7 bc
       0.3319024 -0.18445516 -0.3314606 -0.028273713
000310 d6 2c 5d be 60 29 fd 3d 36 ee 3e 3e 89 c6 a1 3e
       -0.21599135 0.12361407 0.18645558 0.31596783
000320 7a f7 44 3d a3 99 50 be 55 65 48 bd 3e 3a 78 3d
       0.048087575 -0.20371108 -0.048924763 0.06060242
000330 f0 09 4a 3e 4b ab 83 3e 42 9a d8 3c bf 2a 3e be
       0.19730353 0.25716624 0.026440743 -0.18570994
000340 29 d7 53 be 69 b1 70 be 13 4a 0a be 6c 08 47 3e
       -0.20687546 -0.23505177 -0.1350482 0.19436806
000350 8b d0 e0 3c af 1b 3b 3e cd 02 8a 3e a0 75 20 3d
       0.027443191 0.18272279 0.26955262 0.039174676
000360 f0 ee 1a 3d 82 3f 4c 3c f2 e3 f7 3b af db 72 3e
       0.037825525 0.012466313 0.007565015 0.23716615
000370 a4 27 dd 3c 2c 15 da 3d 34 a4 a4 be d5 1c 67 3e
       0.026996441 0.106485695 -0.32156527 0.22569592
000380 a5 37 25 3e 32 7a 1d 3e b2 8b a2 bc 16 ea 63 3b
       0.16134508 0.15378645 -0.019842003 0.0034776977
000390 fb 52 cc bd 2d f8 a2 3e fa 22 41 be ee ea 83 be
       -0.09976765 0.31829968 -0.18860999 -0.25765175
0003a0 05 d3 3f 3d 2a 66 4a be 92 75 9e be b7 94 e3 3c
       0.046832103 -0.19765535 -0.30949074 0.027780874
0003b0 46 b8 47 be 0b 50 a1 3e d1 00 3b 3e 39 1f 63 3d
       -0.19503888 0.3150638 0.1826203 0.055449698
0003c0 7e 6a 4c be 42 58 af bc 14 db 86 bd b2 00 3a be
       -0.19962499 -0.02140439 -0.065847546 -0.18164328
0003d0 e6 d3 b5 bd 4a 25 20 3d d7 f0 be bd 70 66 21 bd
       -0.08878307 0.03909806 -0.0932328 -0.039404333
0003e0 d1 b0 0a be 00 62 c6 3c c9 ee 05 3d 1b a0 95 bd
       -0.13544013 0.024216652 0.032698426 -0.07305928
0003f0 5c cb f3 bc 08 15 50 3e e9 25 4d 3e 76 07 63 3e
       -0.029760055 0.20320523 0.20033993 0.22170815

model.rnn.weight_hh_l1 f4 [160, 40]
000000 33 c6 04 3e ce 51 e6 bb c0 15 0d bd e2 b7 8b bb
       0.12966232 -0.007028795 -0.03444457 -0.004263864
000010 69 cf 8b bd 21 5b f3 bd 04 e8 97 bd 1a ca 3d 3d
       -0.0682667 -0.11882616 -0.074173 0.046335317
000020 d5 4e 69 3d ef 1d 96 3d 9b b8 a0 bd 0c c8 55 bb
       0.056959946 0.07329928 -0.07847711 -0.0032620458
000030 43 f4 95 bd a3 31 64 bd c2 2e 12 bd 42 b0 cf bd
       -0.0732198 -0.0557114 -0.035689123 -0.101410404
000040 21 cf 9e 3d f4 5b cf bd e2 4c 31 bd 96 cf 8a bd
       0.077543505 -0.101249605 -0.04328621 -0.06777875
000050 f2 c1 1f bd 88 72 09 be 27 ea 85 bd 95 7b 64 3d
       -0.03900332 -0.13422596 -0.06538802 0.05578192
000060 59 e5 bd 3d 2d 72 3a 3e d9 a6 ff 3d 75 cf 83 3d
       0.0927226 0.18207617 0.124829955 0.06436054
000070 74 b3 b9 3d 6a 17 7e bd 01 b2 23 be 96 07 2b be
       0.09067431 -0.06203405 -0.15985872 -0.16702113
000080 0f ff 24 3e a6 3a cd bd 3e e6 c7 bb 1f 57 0c 3e
       0.16112922 -0.10020952 -0.006100445 0.13705109
000090 57 02 a0 bd f7 52 2a bd 02 97 e9 bd f7 fa 44 3d
       -0.07812946 -0.041583028 -0.114057556 0.0480909
0000a0 c9 f5 9c 3c 73 be e4 bd 25 ae 31 3d cb 73 f6 bd
       0.019160168 -0.11169138 0.043378968 -0.120338045
0000b0 c7 e1 70 3d 95 6e 58 bd 46 c6 35 3d 26 40 32 3d
       0.058809068 -0.052839834 0.04437854 0.043518208
0000c0 1b c2 40 be af 15 50 3d 79 6e 56 3d 57 b8 39 3c
       -0.18824045 0.05080193 0.05235145 0.011335454
0000d0 1a a3 2e be f1 9c dc 3d de 2a 76 3e a0 16 fe 3c
       -0.17054406 0.10772122 0.2403979 0.031016648
0000e0 4b c9 48 bd d9 11 62 bd 1d 4c 2f be 9e d9 29 be
       -0.049020093 -0.055192802 -0.17118879 -0.1658692
0000f0 71 e4 ae bd 25 84 8e 3d 8a 1c 09 be db 4c ad 3c
       -0.085396655 0.06958798 -0.13389793 0.021154812
000100 6b 66 10 be 51 6a 5a 3d 6a 67 29 be 01 f3 25 bd
       -0.1410157 0.053324047 -0.16543356 -0.04051495
000110 65 5f 4d bc 7d 67 15 be b9 b3 3f 3d 45 c1 0f 3d
       -0.012534951 -0.14590259 0.046802256 0.035096426
000120 3b 95 e9 bd 0b 91 ae bd 97 17 01 3e e1 40 4a 3d
       -0.114054166 -0.085237585 0.12606655 0.04937828
000130 e2 35 43 be 8d 41 22 3e 58 c6 c6 bd dd 01 d3 bd
       -0.19063523 0.15845318 -0.097058 -0.1030309
000140 db e0 bc 3d 4f 57 29 be eb 6a 10 be 39 9a 06 3d
       0.09222575 -0.16537212 -0.14103286 0.032861922
000150 d1 37 0c 3a 12 9e 10 3e 7f f4 b7 bd 49 28 31 be
       0.00053488935 0.14122799 -0.08982181 -0.17300524
000160 cc 96 07 be 32 06 81 bd ba b0 a6 3b 39 ba 3a bc
       -0.13241118 -0.0630001 0.0050869854 -0.011396938
000170 a8 e8 b6 bd 81 e4 02 bd d3 62 06 3e 7c 37 89 3d
       -0.089310944 -0.0319562 0.13123636 0.06700036
000180 a9 97 37 bc 30 95 f3 bc 44 2d aa bd 49 1e 94 3c
       -0.011205592 -0.029734224 -0.08309415 0.018080847
000190 c3 63 13 3d 79 83 de 3d d8 bd 9b bd 23 6c 07 bd
       0.035983812 0.1086492 -0.07604569 -0.03306211
0001a0 ff a4 d5 3b 16 d4 d5 bd 95 31 bd bb e4 2a 1d 3e
       0.006519913 -0.10440843 -0.005773733 0.15348393
0001b0 54 bb 05 bd 06 a5 96 3d 6c 66 d1 bd 11 24 ce bd
       -0.032649353 0.073556945 -0.102246135 -0.10065473
0001c0 b6 b6 27 3e c1 ab 87 3d 45 6a dd 3d 2a ba 72 3d
       0.16378292 0.06624556 0.10811285 0.05925957
0001d0 b2 4a 4d be f4 64 49 3b e7 93 ab 3c dd d2 49 be
       -0.20048025 0.0030730339 0.020944549 -0.19709344
0001e0 c9 3c 1b be ad 92 18 3e 1c ae 0a be 62 f3 a9 bd
       -0.15159906 0.14899702 -0.1354298 -0.08298375
0001f0 1d a1 89 bd bb 06 dd bd 24 f6 2c bc 8f 08 38 be
       -0.06720183 -0.10792299 -0.010556731 -0.17972015
000200 86 0f fb 3d 73 f9 de bd 53 90 e5 bd 6f 39 c8 bd
       0.1225882 -0.108874224 -0.11209168 -0.097765796
000210 e3 3d b4 bd 0e d6 78 be 61 2c aa bd 44 1c a5 3a
       -0.088008665 -0.24300405 -0.08309246 0.0012596925
000220 a1 58 1a be 05 8a f2 3d 5c 61 b6 3d c5 48 48 3c
       -0.15072872 0.118427314 0.089052886 0.012224381
000230 58 48 2c 3d d4 28 04 3e 1a a7 8f 3d f3 5a b0 3c
       0.04206118 0.129062 0.07014294 0.021527743
000240 3e e5 f9 3c d2 0c 95 3c f6 39 ca 3d 38 67 81 3d
       0.030504819 0.01819459 0.098743364 0.063185155
000250 d3 07 90 bd 77 2b f8 bd 1c b8 db bd c2 0b 1e be
       -0.07032742 -0.12117665 -0.107284755 -0.15434173
000260 c1 70 7a bd 6e c9 f4 3c eb 46 0d be b3 9c f4 3d
       -0.061142687 0.029881205 -0.13796584 0.119439505
000270 ca 68 98 3b d5 3f 19 be 77 42 7f 3c ed 1e de bd
       0.0046511637 -0.14965756 0.015579811 -0.108457424
000280 a6 0a 79 3d d0 3a 8e 3c 85 1f cd bd a6 16 ff 3d
       0.06080117 0.017362028 -0.100157775 0.12455492
000290 fe 1d ad 3b 68 6e 8c bd 72 5b 83 3d 13 57 b8 3c
       0.0052831164 -0.06856996 0.06413926 0.022502458
0002a0 02 37 b4 bd d0 57 23 bd 76 75 2c be 8e c6 ae 3c
       -0.087995544 -0.039878666 -0.16841683 0.021334913
0002b0 40 1f f7 3c 35 ed 18 be 81 a8 2c be 40 89 7e bd
       0.030166268 -0.14934237 -0.16861154 -0.06214261
0002c0 5d a3 26 3e 33 d4 1c 3e b3 c1 45 3d f5 2b 9c 3d
       0.16273256 0.15315323 0.04828043 0.07625572
0002d0 33 84 fd bd 19 56 3a bb dd 0a 0e 3e 75 04 dd 3d
       -0.123787306 -0.0028432666 0.13871332 0.10791866
0002e0 2c 89 32 bc b6 cb 25 bd 3c a4 d1 3d 31 b8 c5 3d
       -0.010896962 -0.040477477 0.10236403 0.09654272
0002f0 b5 8e 73 3e 6f 48 d4 bd a4 2a da 3c 10 33 3f be
       0.23784907 -0.10365378 0.02663166 -0.18671823
000300 31 2f 49 bd 0a c2 a0 3d ec e7 13 3c ca 76 e4 bd
       -0.04911727 0.0784951 0.009027462 -0.1115547
000310 ca 37 83 bd 3a 10 2a be 09 ec 8a bd 2a 40 78 bd
       -0.06407125 -0.16607752 -0.067833014 -0.060608067
000320 6b be 08 be 41 98 35 3d c9 37 7a 3d 50 ef 8e bc
       -0.13353889 0.044334654 0.061088357 -0.017448097
000330 10 f9 2e 3e b1 23 c5 3c 01 f7 50 bc b2 1f 1e be
       0.17087197 0.02406487 -0.012754203 -0.15441778
000340 d6 78 11 be 45 37 d9 bc d8 8b cf bd d5 5e e6 3d
       -0.14206252 -0.026515612 -0.10134095 0.112485565
000350 55 ae f7 bd 7d b5 1c 3d e9 51 5c bd e3 12 eb bd
       -0.12093798 0.03825902 -0.053789053 -0.11478212
000360 0c a1 8a 3c 17 3c db 3b 20 7f 90 bc 66 ea 6b 3c
       0.016922496 0.006690513 -0.017638743 0.014399147
000370 17 8e 1d 3d dc 6e c5 bd a6 79 41 3e 1d 3f 5f bd
       0.038465586 -0.096402854 0.18894061 -0.05450355
000380 e9 05 8b 3d 95 fb ad 3d 43 dc 17 3e 55 5b 0d 3c
       0.06788237 0.08495251 0.14830117 0.008627732
000390 62 6e 42 3e 1c 40 cd 3d 0b 0c 2f be 74 30 59 be
       0.1898742 0.100219935 -0.17094438 -0.2120989
0003a0 54 4b 34 3e a0 3a 9a 3d ae 32 13 3e db b9 2b be
       0.1760686 0.07530713 0.14374802 -0.16770117
0003b0 42 bc 26 be 0b fc f2 bd f8 31 9f bd d4 76 cc 3d
       -0.16282752 -0.1186448 -0.07773203 0.09983602
0003c0 3e ad 64 3d bf bc 94 bd 43 49 0b 3d 16 41 11 be
       0.05582928 -0.07262563 0.034005415 -0.14184985
0003d0 fd b5 07 3e 02 05 9e 3d 31 68 3b 3d e2 51 e8 3c
       0.13253017 0.07715799 0.04575366 0.028359357
0003e0 5e f3 0a be ba de a0 3d 6b d8 4c be c4 1a a2 bc
       -0.135694 0.07854982 -0.20004432 -0.019788153
0003f0 0f fe 12 be a7 c8 9d bc 5b bf 11 3e f5 18 51 be
       -0.14354728 -0.019260718 0.14233153 -0.20419677

model.rnn.bias_ih_l1 f4 [160]
000000 85 0e 48 3e 93 66 3a 3e d6 0c 35 3e 13 ff e9 bb
       0.19536789 0.18203191 0.17680678 -0.007141003
000010 a7 a8 06 3e e2 b7 2b 3d a5 d1 f9 bb e3 38 2f 3e
       0.13150273 0.04192341 -0.0076238685 0.17111544
000020 27 cf 09 bd 0c 24 10 bd 68 23 9e 3c bd 88 4c 3e
       -0.03364482 -0.035190627 0.019303992 0.19974037
000030 8f 3c 2f 3e 36 9c 2e bd f4 54 02 3e ae 58 25 3e
       0.17112945 -0.042629443 0.1272772 0.1614711
000040 50 1f b5 bd 48 84 a6 3d 22 5f c2 bd 74 f7 75 bd
       -0.08843863 0.081306994 -0.094908014 -0.060050443
000050 8e 79 98 39 53 b4 ae 3d 3c 0b 28 bd 90 e6 80 bd
       0.00029082265 0.08530488 -0.04102634 -0.06293976
000060 c3 91 2f be 31 e1 f6 3d fe c3 83 3d c1 c8 ad 3d
       -0.17145447 0.120546706 0.06433867 0.084855564
000070 ac a3 40 bb d5 16 20 3e 7b 76 91 3d 81 4c 8c 3d
       -0.002939443 0.1563371 0.071026765 0.068505295
000080 ee 3d c2 3d 94 1e 25 3d 75 e9 95 3c be 5f 3e bc
       0.094844684 0.040312365 0.018299798 -0.011619506
000090 82 56 4a 3e e6 5b 63 bd 00 f2 0e 3e b2 d3 66 bd
       0.19759563 -0.055507563 0.13959503 -0.056354232
0000a0 41 63 41 3e 65 0d 65 3d 49 c6 c5 3d 09 35 10 3e
       0.18885519 0.055920977 0.096569605 0.14082731
0000b0 8b 34 1c 3e 9a 0d 18 3e 80 52 ea 3d e5 9b 43 3d
       0.15254419 0.14848939 0.11441517 0.047756094
0000c0 1b e8 c7 bd 97 cc c6 bd 4e b9 f7 3d 4c 02 fe 3d
       -0.097610675 -0.09706991 0.12095891 0.12402782
0000d0 6f 34 43 bd b7 31 61 bd ff 9e 10 be ec 97 6d 3d
       -0.047657426 -0.054979052 -0.14123152 0.058006212
0000e0 6e aa b4 bc 16 4c 13 3e b2 63 a1 bc 0c ed 9e bd
       -0.022053923 0.14384493 -0.019700859 -0.07760057
0000f0 eb 4c 5e 3c 23 2f 1d 3e d9 4d 39 3e 12 c8 8b bd
       0.013568143 0.15350012 0.18096103 -0.0682527
000100 d4 17 44 3d 72 85 3c 3e ca 27 91 bd 97 38 1e 3e
       0.047874287 0.1841028 -0.07087667 0.15451275
000110 c8 5e 8c bd f1 60 20 3e 59 c1 ce bd 4a d5 6f bd
       -0.068540156 0.1566198 -0.10095472 -0.058553018
000120 7b b5 64 bd 63 5f 9a bd 89 81 5a 3d 94 ea 87 3d
       -0.055837136 -0.07537725 0.05334619 0.06636539
000130 3d 08 71 bd 8d 4f d1 ba 9c 76 dc 3d 4d 96 5f bd
       -0.058845747 -0.0015969143 0.107648104 -0.054586697
000140 b5 f3 3b be b1 fe 90 3d 4b 03 34 3c 7a a5 fc 3d
       -0.18354686 0.070798285 0.010987113 0.1233625
000150 4f 3b 2c 3e 32 fa 8a 3d b8 bc 24 bd 43 0c 89 bd
       0.168195 0.06786002 -0.04021904 -0.06691792
000160 5e 38 5a 3d 0a 83 b0 bc 0b 3e e9 3b 60 1e ac bc
       0.053276412 -0.02154686 0.007117992 -0.021010578
000170 e7 3c e2 bd fd 48 04 be ce 59 2e 3d 9d 4b 3b be
       -0.110467725 -0.12918468 0.042566113 -0.18290563
000180 d4 4e 09 3e 9f fe b8 3d 39 48 89 3d b2 2c 35 3d
       0.13408977 0.0903294 0.067032285 0.044232078
000190 91 60 4e bd b8 b5 fc bb a0 4a 96 3d 1d d2 10 be
       -0.05038506 -0.0077120923 0.07338452 -0.14142652
0001a0 52 5a bf 3d 03 fc 09 3e c5 b6 07 3e 79 02 5e bc
       0.09343399 0.13475041 0.13253315 -0.013550394
0001b0 8c 49 3b bd 0d 37 95 3d bc 3f f8 bd b4 12 15 bd
       -0.045724437 0.07285891 -0.12121531 -0.03639479
0001c0 be cc 2f 3e 7e 17 0b 3e 37 5d ce 3c a2 a5 31 3d
       0.17167947 0.1358318 0.025190933 0.04337085
0001d0 de 72 07 be 5a 8e 8d 3d b7 55 16 bd e7 77 5f bc
       -0.13227412 0.06911917 -0.036702838 -0.013639427
0001e0 f3 38 44 bd cd 11 d4 3c 37 64 29 bd 8b 7c 09 3c
       -0.047905874 0.025887394 -0.041355338 0.00839151
0001f0 30 26 3b bd 58 42 34 3e 74 c2 0b be 88 c9 47 3e
       -0.045690715 0.17603433 -0.13648397 0.19510472
000200 8d 3f 09 bd 27 78 c8 bd 87 a5 78 3e 33 27 3e 3e
       -0.033507872 -0.09788542 0.24281894 0.18569641
000210 05 36 50 3c bd a0 db bd f7 a9 a3 bd 23 ca 39 3e
       0.012708192 -0.10724018 -0.079914026 0.18143515
000220 33 7a eb bd 75 96 41 3d 07 a4 41 bd c3 2d 09 3d
       -0.11497917 0.047262628 -0.04727557 0.033490907
000230 36 58 da bd 2b b6 bf bd 61 07 ae bc cf 4c 13 3e
       -0.10661356 -0.09360918 -0.021243753 0.14384769
000240 7e 09 d8 3c fc b3 c5 3d b0 a5 2c 3c a6 a7 f8 3d
       0.026371714 0.0965347 0.01053755 0.121413514
000250 a8 c9 ec 3d 62 3b 29 bc 0e b6 64 bb 6a 13 f3 3d
       0.115619004 -0.010329099 -0.0034898552 0.11868937
000260 a7 83 04 be 8a 37 c9 bd a0 92 4b 3e 0b 01 1c 3e
       -0.12940846 -0.09825046 0.19880152 0.15234773
000270 46 40 a8 3d 19 59 2f 3e 89 69 f3 bb b3 39 ff bd
       0.08215384 0.17123832 -0.0074283523 -0.12462177

model.rnn.bias_hh_l1 f4 [160]
000000 a8 10 2d bd fa b6 2b bc 62 b5 d4 3d f4 b5 55 3e
       -0.042252213 -0.010480637 0.103861585 0.20870191
000010 30 b4 13 3e 82 24 9a 3c 49 0f 9e 3d 6e c1 2d 3e
       0.14424205 0.018816236 0.07717759 0.16968319
000020 0d 14 fc 3d 9e fe 2a 3d a9 38 28 3e 3a 1f 5f 3e
       0.12308512 0.041746728 0.16427864 0.21789256
000030 a7 59 fa 3d 0e ff b3 bd 76 b6 9e bb 12 dc 0b bd
       0.12224131 -0.08788882 -0.0048435284 -0.034145422
000040 ab 6a 7c bd 79 ac 2c 3e 13 50 3f 3d 79 21 13 3e
       -0.061625164 0.16862668 0.046707224 0.14368238
000050 7e 03 1f 3e 9c 7a 17 3d f4 5c 8a bd 42 71 db bd
       0.15528676 0.036982164 -0.06756011 -0.107149616
000060 b4 cf 2e bc e2 c1 20 bd c5 56 0f be 89 58 fc 3d
       -0.0106696375 -0.0392474 -0.13997944 0.12321574
000070 26 f0 28 3d 7e 51 61 bc 4d 20 94 3d 6f 38 92 3d
       0.04124465 -0.013752339 0.072327234 0.0713967
000080 34 29 9d bc da 79 0d be eb c7 27 3e a4 b9 2a 3e
       -0.019184686 -0.13816014 0.16384856 0.16672379
000090 88 57 fd bb 64 bc cf 3d 67 2a 2e 3e a0 85 b1 3d
       -0.007731382 0.101433545 0.17008363 0.08668065
0000a0 21 67 c6 3d ad 11 6e 3c 37 aa 69 3d 70 81 87 3d
       0.09687639 0.014530581 0.057047095 0.06616485
0000b0 a0 c9 97 bd 20 fb 26 3d d3 78 b5 bd 78 3a d5 3d
       -0.07411504 0.040766835 -0.08860936 0.10411543
0000c0 82 88 a5 3d 18 ce 11 3e 33 6a 37 3e 49 69 87 bd
       0.080826774 0.14238775 0.17911606 -0.066118784
0000d0 02 b3 5b bd a1 d5 fa bc ba 99 f0 3d 07 d4 16 3d
       -0.053637512 -0.030619444 0.11748071 0.0368233
0000e0 5f 9a 5e bd 03 01 35 3d 73 59 0a be 1c 9b 75 3d
       -0.05434644 0.044190418 -0.13510685 0.059962377
0000f0 f7 a1 a3 3d 26 11 8d bc 65 6b 5a bd 50 6e 95 3d
       0.07989877 -0.017220091 -0.053325076 0.07296431
000100 87 b2 b6 3d e7 3a c2 3d 71 b6 f6 bd 6f 14 c1 bc
       0.0892077 0.09483891 -0.12046517 -0.023569314
000110 1e 4e 82 bd 61 50 6e 3c 3a 5b 48 3e eb e4 3f bd
       -0.06362556 0.014545531 0.1956605 -0.046849173
000120 81 ee 1a be df 90 a0 3d 71 54 a8 3d 79 1b 72 bd
       -0.15130045 0.07840132 0.08219231 -0.05910823
000130 9f 21 b0 bc a9 74 d3 3d 65 bd 18 bd 26 e8 05 be
       -0.021500407 0.103249855 -0.037289996 -0.13076839
000140 25 51 55 3b 57 4e c1 bc 9a e4 1c bd 6f d1 00 3c
       0.0032549587 -0.023596926 -0.03830395 0.007862433
000150 c5 3b 5e 3e 0d c1 79 3d 16 c1 1d bd 54 b0 08 be
       0.21702488 0.060975123 -0.03851422 -0.13348514
000160 7d 08 b7 bd 98 ee ab bd ce d5 87 3c 06 bf fb 3c
       -0.08937166 -0.083951175 0.016581442 0.030730736
000170 34 60 64 bd eb 62 2c be 2b 75 15 be 4e f0 f3 bd
       -0.05575581 -0.16834609 -0.14595477 -0.11911069
000180 96 2c 22 bc 69 11 20 3e 90 01 ae 3d 2e 9a 0d 3e
       -0.009898325 0.15631641 0.08496392 0.13828346
000190 42 f2 f2 bd ec f5 77 3d bf 81 31 3e 49 e1 81 bd
       -0.11862613 0.060537264 0.1733465 -0.06341798
0001a0 5c 1a ba bc 49 bb d4 3d d3 75 89 bd 13 88 de 3d
       -0.022717647 0.10387284 -0.06711926 0.10865798
0001b0 fa 31 ea 3c 88 ca 24 be c7 30 8c 3d ed 9f 51 be
       0.028588284 -0.16092885 0.06845241 -0.20471163
0001c0 54 a9 84 3d 30 b6 20 3e 3a c5 b8 3d 82 67 a5 bd
       0.06477609 0.15694499 0.09021993 -0.08076383
0001d0 e5 00 32 3c 00 26 0c bd 83 8c 30 3d c6 5a 06 bd
       0.010864471 -0.034215927 0.043102752 -0.032801412
0001e0 37 5e ea bd bf 1d 1d be bc ad d4 3d eb ff 86 bd
       -0.11443751 -0.15343378 0.103847 -0.06591781
0001f0 1e 78 7b 3e 46 9e e5 3d 11 a1 f3 3d 90 c6 03 3e
       0.2455754 0.11211829 0.11895955 0.12868714
000200 cc 54 e5 3d 76 17 2f 3d 86 82 41 3e 06 ba 10 3e
       0.11197814 0.042746983 0.18897447 0.14133462
000210 33 30 ca 3c 59 66 d3 bd 29 fb fc bd de 59 21 3e
       0.024681186 -0.10322256 -0.123525925 0.15756938
000220 49 0b 1a be 16 72 ea bc 46 1b 99 3d 3d cd 0b bd
       -0.15043367 -0.028618854 0.07475905 -0.034131277
000230 4d 75 f6 bd 37 04 56 3c 90 36 f4 bd 72 9d 8e 3d
       -0.12034092 0.013062528 -0.119244695 0.06963624
000240 ad 9f 0e 3d 5d 0e 37 3e 53 7d eb bd aa 5e 10 be
       0.034820247 0.17876573 -0.11498513 -0.14098611
000250 c8 d4 a7 3d bf 39 8b bd 3e 8c ba bb 28 1d 92 3c
       0.08194882 -0.067981236 -0.0056929877 0.017836168
000260 f1 ad 99 3d 7b fc c1 bc 3e 76 68 3e f4 5b d1 bd
       0.0750388 -0.023679962 0.22701356 -0.10222617
000270 03 02 2d bd 01 4d 62 3d a9 fe 24 3e bd ef ae 3d
       -0.042238247 0.055249218 0.1611277 0.0854182
