models/deepar_synthetic_Jouets/prediction-net-state.pt (torch, 98912 bytes, 11 tensors)

model.param_proj.proj.0.weight f4 [1, 40]
0	0xbee31749	-0.44353703
1	0x3d31b046	0.043380998
2	0x3daca0bf	0.084290974
3	0xbeb4e4d1	-0.35330823
4	0x3e84c13b	0.25928673
5	0xbdcf4ac4	-0.10121682
6	0xbeb89d14	-0.3605734
7	0xbed6ecff	-0.4197769
8	0xbe952b9b	-0.2913483
9	0xbe4bb2bb	-0.19892399
10	0xbda6d837	-0.081467085
11	0x3eb99f00	0.3625412
12	0x3ea8b407	0.3294985
13	0xbe389518	-0.18025625
14	0x3dbe6a7e	0.092976555
15	0xbe9b7a3d	-0.30366698
16	0xbf2077c1	-0.6268273
17	0xbeeea163	-0.46607503
18	0x3eaf4f8d	0.3424038
19	0xbe0f1dfd	-0.13976283
20	0xbe9ea5d2	-0.30985886
21	0x3e8a0c60	0.26962566
22	0x3e15ca87	0.1462804
23	0xbf02d0d3	-0.5109989
24	0xbe4b2314	-0.198376
25	0x3e92e2a5	0.2868854
26	0x3ea035ea	0.31291133
27	0xbe9742c9	-0.2954314
28	0xbef1e038	-0.47241378
29	0x3c84dbb1	0.016218038
30	0x3eda825e	0.42677587
31	0x3e5b0d27	0.21391736
32	0x3ea1a000	0.31567383
33	0xbda11fa1	-0.07867361
34	0xbe0038ee	-0.12521717
35	0x3d84cfe9	0.06484968
36	0xbeec4ec4	-0.46153843
37	0x3e86a7ed	0.26299992
38	0xbc398634	-0.0113235
39	0xbed45cfb	-0.41477188

model.param_proj.proj.1.weight f4 [1, 40]
0	0xbdbeac16	-0.093101665
1	0x3d99ca26	0.0750926
2	0xbd194ab9	-0.037424777
3	0xbd8ebaf5	-0.06969253
4	0x3e18e008	0.14929211
5	0xbc924e07	-0.017859472
6	0xbdd7f15c	-0.105440825
7	0xbdcbc242	-0.09949161
8	0xbbd1baa8	-0.006400425
9	0x3d93b188	0.07211596
10	0xbe28c409	-0.16481031
11	0x3e0127d6	0.12612852
12	0x3e0282d8	0.12745225
13	0xbe365d8c	-0.17809123
14	0x3dc327d1	0.09529079
15	0xbd1fcf28	-0.03901592
16	0x3d615fad	0.055022884
17	0xbe095478	-0.13411129
18	0x3e1d3cb3	0.15355186
19	0xbe0640ac	-0.13110608
20	0xbe201a20	-0.15634966
21	0x3e11ee8d	0.14251156
22	0x3e348ffe	0.17633054
23	0x3d064c4c	0.032787606
24	0xbd2efafb	-0.042719822
25	0xbde17772	-0.110091105
26	0x3da2f70d	0.079572774
27	0x3e526137	0.20544897
28	0xbde6cede	-0.112699255
29	0x3dc40f08	0.095731795
30	0x3cb3e5db	0.02196019
31	0xbe2f2e81	-0.17107584
32	0x3d85f31e	0.065405115
33	0x3d900d8d	0.070338346
34	0xbdde0064	-0.10839918
35	0x3d877dea	0.06615813
36	0xbd82c31e	-0.06384872
37	0x3d8a9391	0.06766427
38	0xbdb9d3b4	-0.09073582
39	0xbd3abb17	-0.04558858

model.param_proj.proj.2.weight f4 [1, 40]
0	0x3eae9fcc	0.3410629
1	0x3d1bbe21	0.038023118
2	0xbe27c68d	-0.16384335
3	0x3e37a9eb	0.17935912
4	0xbe9dd7eb	-0.30828795
5	0x3be1eb32	0.0068944925
6	0x3e835cdc	0.25656784
7	0x3e13e87b	0.14444153
8	0x3ea1db2b	0.31612524
9	0x3da0cfec	0.07852158
10	0x3daf8c49	0.08571679
11	0xbd358c40	-0.044323206
12	0xbd6a3000	-0.057174683
13	0x3ea2b997	0.3178222
14	0xbdc81b92	-0.097708836
15	0x3eaaed1e	0.3338403
16	0x3ee0ab34	0.43880618
17	0x3e8dd917	0.2770469
18	0xbe6eedf8	-0.23332965
19	0x3e021ed6	0.12707075
20	0x3e7ee59a	0.24892274
21	0xbe89cf31	-0.26915887
22	0xbe3baae9	-0.18326916
23	0x3e67072e	0.22561333
24	0x3ea012d0	0.31264353
25	0xbe9f05df	-0.31059167
26	0xbe807248	-0.2508719
27	0x3e61d7f3	0.22055034
28	0x3e905403	0.28189096
29	0xbd2abe9c	-0.041685686
30	0xbec6b688	-0.38811135
31	0x3db066ee	0.08613382
32	0xbe605c4e	-0.21910211
33	0x3dad5252	0.08462967
34	0x3e17516c	0.14777154
35	0xbeb16aca	-0.34651786
36	0x3e87bba2	0.2651034
37	0x3d70a3f3	0.058750104
38	0xbe1b7d33	-0.15184478
39	0x3e147a6c	0.14499825

model.rnn.weight_ih_l0 f4 [160, 21]
0	0x3e0e99fb	0.13925926
1	0x3e32d5ef	0.17464422
2	0x3acdb6a2	0.0015694688
3	0x3e802814	0.25030577
4	0x3e64a5e7	0.22328912
5	0x3e8db89f	0.27679917
6	0x3e4a41e5	0.197517
7	0x3e80f13b	0.25184044
8	0xbd00d19a	-0.03144989
9	0x3c406e8d	0.011745107
10	0x3e0d7438	0.13813865
11	0x3dff867f	0.12476825
12	0x3dff5b77	0.124686174
13	0xbef8a65c	-0.48564422
14	0xbb27bf09	-0.0025596044
15	0xbae6d6f9	-0.0017611674
16	0x3e1c7e7c	0.15282625
17	0x3a8b4e11	0.0010628124
18	0x3d14b109	0.036301646
19	0x3e6e8f9c	0.2329697
20	0xbb5ec6db	-0.0033993039
21	0x3e933d44	0.2875768
22	0xbc27a03a	-0.010231072
23	0x3e159816	0.14608797
24	0x3e618666	0.22023925
25	0x3e920838	0.28521895
26	0x3daef1b2	0.085421935
27	0xbd1f2c65	-0.038860697
28	0x3e529e37	0.20568167
29	0xbc8a4522	-0.016878668
30	0x3e12031d	0.14259
31	0x3e2448bd	0.16043372
32	0x3cb942c9	0.022614853
33	0x3dd838c3	0.105577014
34	0x3e796fff	0.2435913
35	0x3a911b29	0.0011070716
36	0xb9945df8	-0.00028298772
37	0x3e80934d	0.25112382
38	0x3b04b0db	0.0020247016
39	0x3d149384	0.036273494
40	0xbe9ef7fb	-0.3104857
41	0x3e1a5e86	0.1507512
42	0xbde309b0	-0.11085832
43	0xbde40b5a	-0.11134978
44	0xbdfdfc19	-0.124015994
45	0x3e0d146f	0.13777326
46	0x3de66f88	0.11251742
47	0x3d991d7d	0.074763276
48	0x3bc36c93	0.005963871
49	0x3e5793a2	0.21052411
50	0x3d98bf62	0.074583784
51	0x3e469698	0.19393384
52	0xbe50c979	-0.20389356
53	0x3e9bae19	0.30406263
54	0x3c33a54b	0.010964702
55	0xbdaca85f	-0.08430552
56	0xba0a4545	-0.0005274604
57	0x3b09a05a	0.0021000118
58	0x3e3b40ec	0.18286484
59	0xb9c3af7b	-0.00037324041
60	0x3df231d1	0.11825908
61	0x3dda8617	0.10670107
62	0x3e27979d	0.1636643
63	0xbe72f12b	-0.23724811
64	0x3cc1958a	0.023630876
65	0xbe368289	-0.17823233
66	0xbea8cfe7	-0.32971117
67	0xbe54ba3a	-0.20774165
68	0xbe10c2b7	-0.14136778
69	0xbd989dc0	-0.074519634
70	0xbdd6cf45	-0.10488752
71	0xbf0f8d63	-0.56075114
72	0xbe34d627	-0.17659818
73	0xbd714d4e	-0.058911614
74	0xbe92bb71	-0.2865863
75	0xbd5710eb	-0.05250637
76	0x3f783190	0.96950626
77	0x3a111525	0.0005534462
78	0xbb0e2a2e	-0.0021692622
79	0xbd96e930	-0.07368696
80	0xbb14e740	-0.0022720844
81	0x3d44e673	0.048071336
82	0x3e1d10a4	0.15338379
83	0xbd4eef40	-0.050521135
84	0xbe0cbfa1	-0.13744976
85	0xbde3dd57	-0.111262016
86	0x3e3f5431	0.1868446
87	0xbc3197e5	-0.010839437
88	0xbd3efb98	-0.046626657
89	0xbbec53cd	-0.0072121383
90	0x3dbc334b	0.09189471
91	0xbd83906d	-0.064240314
92	0x3d563799	0.052299116
93	0x3d9e839f	0.077399485
94	0xbc19fec2	-0.009399118
95	0x3e74a562	0.23891214
96	0x3cb164c7	0.0216545
97	0x3f855b8d	1.0418564
98	0x3a73be53	0.0009298075
99	0x3a67e0d4	0.00088454527
100	0xbd36c501	-0.04462147
101	0xb91acba5	-0.00014762448
102	0x3e079c31	0.13243176
103	0x3dbefac7	0.09325176
104	0x3d9bc37b	0.07605644
105	0x3eb9fa72	0.36323887
106	0x3eb5a7d1	0.35479596
107	0x3df9b9f8	0.12193674
108	0x3e5ea15a	0.21741238
109	0x3dad3bff	0.08458709
110	0xbbaa7642	-0.0052020857
111	0x3e28dc5e	0.16490313
112	0x3d1ca7c5	0.038245935
113	0x3d9ed870	0.07756126
114	0x3e68c256	0.22730383
115	0xbca8e04c	-0.020614766
116	0x3b873a76	0.004126842
117	0xbdaf5185	-0.085604705
118	0x3ef995ed	0.48747197
119	0xbb10c335	-0.0022089009
120	0x3b006f5e	0.001959763
121	0x3e065ee6	0.13122138
122	0x3aeac5d7	0.0017911744
123	0xbd759fa5	-0.059966702
124	0x3d2391eb	0.03993408
125	0x3cdfb5f0	0.027308434
126	0xbd80a4dc	-0.062814444
127	0xbc26d71e	-0.010183124
128	0xbd170cec	-0.036877558
129	0x3e129b2e	0.14317009
130	0x3e8f1b13	0.27950343
131	0x3e951932	0.29120785
132	0x3e43146c	0.19050759
133	0x3eb9f411	0.3631902
134	0x3ea5d12d	0.3238615
135	0x3dabbfad	0.08386169
136	0xbec0d2d6	-0.37660855
137	0xbe50a9ff	-0.20377348
138	0x3df18fec	0.11795029
139	0x3e873cec	0.26413667
140	0xbb2f2ac0	-0.0026728362
141	0xba05178b	-0.00050770555
142	0x3e0004f5	0.12501891
143	0x3aa74c8b	0.00127639
144	0x3e0bea4b	0.13663594
145	0x3e9d527c	0.30726993
146	0xbd5ce5f6	-0.053930245
147	0xbc5e140b	-0.013554583
148	0x3e01fb82	0.12693599
149	0x3d9511d4	0.07278791
150	0x3e1904c2	0.14943221
151	0xbde76ccb	-0.113000475
152	0xbd774e32	-0.060377307
153	0xbe26ee85	-0.16301925
154	0xbd3dd1bf	-0.046342608
155	0x3d666862	0.05625189
156	0x3c356a3e	0.011072693
157	0xbd962746	-0.073317096
158	0xbde6c83b	-0.1126866
159	0xbe2490cf	-0.16070865
160	0xbebd16f1	-0.36931565
161	0x3b0463f9	0.002020119
162	0x3afde7ae	0.0019371414
163	0xbcf45b46	-0.029828679
164	0xba9de1f9	-0.0012045495
165	0x3ac67d01	0.0015143455
166	0xbed153a1	-0.40884116
167	0x3d52986e	0.0514149
168	0xbe0854b5	-0.13313563
169	0xbc57c764	-0.013170097
170	0xbe20b0f5	-0.15692504
171	0x3d4610c0	0.048355818
172	0x3dbab3cb	0.09116324
173	0x3d8b327e	0.0679674
174	0x3e0994e8	0.1343571
175	0x3e05e5b2	0.13075903
176	0xbbde8731	-0.0067910184
177	0x3e6d3f45	0.23168667
178	0x3c9eb081	0.019371273
179	0x3d92a7bc	0.07160899
180	0x3d841a00	0.064502716
181	0x3ece6906	0.40314502
182	0x3a1ac1f6	0.0005903536
183	0xbb26ae42	-0.0025433456
184	0x3b2d6e40	0.002646342
185	0x3a4480e6	0.0007496014
186	0x3e51aac3	0.20475297
187	0xbe246090	-0.1605246
188	0x3e1ae3fe	0.15126035
189	0x3c879e9a	0.01655512
190	0xbdf8347d	-0.12119386
191	0x3d8b2215	0.0679361
192	0xbe3700b8	-0.17871368
193	0xbe0317d0	-0.12802052
194	0xbd5e25fa	-0.054235436
195	0xbe213b2d	-0.1574523
196	0xbd949a05	-0.072559394
197	0xbe9cd78c	-0.306332
198	0xbe1b0e33	-0.15142135
199	0x3e80258f	0.25028655
200	0x3d9fe7f6	0.07807915
201	0x3e74687f	0.23867987
202	0x3f99792b	1.1990103
203	0xba3ee51a	-0.00072820636
204	0xba72fb61	-0.0009269026
205	0x3dd4513c	0.10367057
206	0x39437f7c	0.00018644141
207	0x3d40dd33	0.047085952
208	0xbe86f439	-0.26358202
209	0xbe07f31d	-0.13276334
210	0x3d4a907b	0.049454194
211	0x3d28a652	0.04117424
212	0xbe300672	-0.17189959
213	0xbdf83b89	-0.121207304
214	0x3dfa5190	0.12222588
215	0x3dd59bdd	0.10430119
216	0xbd5f3d5a	-0.05450187
217	0x3e0ab6a7	0.13546239
218	0x3d80d88e	0.062913045
219	0x3e78b2a7	0.242869
220	0xbebef9a2	-0.3729983
221	0xbe95aeb3	-0.29234847
222	0xbe9afee6	-0.30272597
223	0xbe5a5e2c	-0.21324986
224	0x39cf34e2	0.00039521517
225	0xbad1c486	-0.0016004003
226	0x3c5c5cda	0.013449872
227	0x3b17f145	0.002318458
228	0x3b95a803	0.0045671477
229	0x3dce7020	0.1007998
230	0xbe0fa6f4	-0.14028531
231	0x3ba53484	0.0050416607
232	0xbcbf09bb	-0.02332007
233	0x3e25c4b9	0.16188325
234	0x3e14041f	0.14454697
235	0xbd5c9168	-0.053849608
236	0xbde3d3b0	-0.111243606
237	0x3e1d6016	0.15368685
238	0x3c4deffb	0.012569423
239	0x3de3294b	0.110918604
240	0xbd309d9e	-0.043119065
241	0xbe27a5ba	-0.16371813
242	0xbcc43710	-0.023952037
243	0xbe206c2b	-0.15666263
244	0xbe56655e	-0.20937106
245	0xbae2d095	-0.0017304594
246	0x391f98d0	0.00015220349
247	0x3d196ca0	0.03745711
248	0xbb236626	-0.0024932711
249	0xbde05046	-0.10952811
250	0x3ea687e7	0.3252556
251	0xbc3f4b29	-0.011675634
252	0xbdb44ec9	-0.088040896
253	0x3b141629	0.0022596216
254	0xbd66f33c	-0.05638431
255	0xbe1f1d37	-0.15538488

model.rnn.weight_hh_l0 f4 [160, 40]
0	0xbe2f7bf7	-0.17137133
1	0x3d7305a5	0.059331555
2	0xbe872633	-0.2639633
3	0x3d7fc0cf	0.062439736
4	0x3e335ab0	0.17515063
5	0xbcf613f6	-0.030038815
6	0xbeb59670	-0.35466337
7	0xbdb2725f	-0.08713221
8	0x3e2613ce	0.16218492
9	0xbe3725b6	-0.1788548
10	0xbdf8a04b	-0.121399485
11	0xbe5f12de	-0.21784541
12	0x3c6b026f	0.014343842
13	0xbc2d2fe0	-0.010570496
14	0xbcbabe7c	-0.022795908
15	0xbdefbe52	-0.117062226
16	0xbcb21555	-0.021738688
17	0xbe6e8576	-0.23293099
18	0x3c8cba17	0.017178578
19	0x3e44192e	0.1915023
20	0xbd8b6e0d	-0.068081
21	0xbd321f8f	-0.043487128
22	0xbe513462	-0.20430139
23	0x3e69f60b	0.22847764
24	0xbd56b5f0	-0.052419603
25	0xbe5e5e0b	-0.21715562
26	0xbe303f56	-0.1721166
27	0xbcc2883e	-0.023746606
28	0x3e7dde98	0.24791944
29	0x3dbb2352	0.09137596
30	0x3d925304	0.0714474
31	0x3dad77fc	0.08470151
32	0x3dc933d7	0.09824341
33	0xbe48d355	-0.19611867
34	0xbc9c70bf	-0.01909673
35	0xbdf8b923	-0.12144687
36	0x3dcf876c	0.101332515
37	0xbe0737a0	-0.13204813
38	0xbcbba171	-0.02290413
39	0x3e6f5e3a	0.23375788
40	0xbd8818d7	-0.06645363
41	0x3e11ea82	0.14249614
42	0xbe617927	-0.22018872
43	0xbe06077c	-0.13088793
44	0x3d863a2d	0.06554065
45	0x3d732deb	0.059369963
46	0xbcb19b64	-0.021680541
47	0xbe09178b	-0.13387887
48	0xbd6cab15	-0.057780344
49	0xbd25214d	-0.04031496
50	0xbdb582fe	-0.088628754
51	0xbdf38345	-0.11890272
52	0xbe569086	-0.20953569
53	0x3d174392	0.036929674
54	0x3cd02843	0.025409823
55	0xbe0e3571	-0.13887574
56	0x3e190933	0.14944915
57	0x3e10fb7e	0.14158437
58	0x3e26503e	0.16241547
59	0x3cd987c4	0.026553996
60	0xbea97f73	-0.3310505
61	0x3e627caf	0.22117876
62	0xbe9b46f1	-0.30327561
63	0x3e9004a2	0.28128535
64	0xbc0e08c6	-0.008669084
65	0xbd05e4eb	-0.032689016
66	0xbcdb557b	-0.026774159
67	0x3e75b246	0.23993787
68	0x3e16e427	0.1473547
69	0xbdb41c45	-0.087944545
70	0x3dd61b61	0.10454441
71	0x3e0438d3	0.12912302
72	0x3e911095	0.28332964
73	0xbe80abdc	-0.25131118
74	0xbdb7f004	-0.08981326
75	0xbde16b5a	-0.11006804
76	0x3e6cba0f	0.2311785
77	0xbe5741eb	-0.2102124
78	0xbe83ad0a	-0.25717956
79	0xbd06eb22	-0.032939084
80	0x3d9f0baf	0.077659
81	0xbdbc5f45	-0.09197859
82	0x3c9ae542	0.018908147
83	0x3e37039b	0.17872469
84	0x3d6646b5	0.056219775
85	0xbe4d4335	-0.20045169
86	0xbbf09f97	-0.0073432433
87	0xbc05c7d8	-0.008165322
88	0x3e8bb9f2	0.27290303
89	0xbe0b2805	-0.13589485
90	0xbdff045a	-0.12452002
91	0xbe0cc626	-0.13747463
92	0xbdd7da5e	-0.10539697
93	0x3d9a5054	0.075348526
94	0xbd726a54	-0.059183434
95	0xbd846e66	-0.06466369
96	0x3e811e1a	0.25218278
97	0xbe3eb6bb	-0.18624394
98	0x3e8ab43c	0.27090633
99	0x3dd48c5f	0.10378336
100	0x3e0f1398	0.13972318
101	0x3d8c76df	0.0685861
102	0xbe3b0584	-0.18263823
103	0x3c56b74a	0.013105223
104	0x3af1438b	0.001840697
105	0xbe3c450a	-0.18385711
106	0x3d56340d	0.052295733
107	0x3e95c427	0.29251215
108	0x3be00d42	0.006837518
109	0x3d964b6c	0.07338604
110	0x3d298b09	0.04139236
111	0x3eb502fd	0.35353842
112	0x3bd47238	0.0064833425
113	0xbe3b8453	-0.18312196
114	0xbe25f0c4	-0.16205126
115	0xbd095288	-0.033525974
116	0x3e34d307	0.17658626
117	0x3dfcdc3b	0.12346693
118	0x3dbd06df	0.09229826
119	0x3d355d8d	0.04427867
120	0x3d27240e	0.04080587
121	0x3e73eb87	0.23820315
122	0xbc222ad9	-0.009897911
123	0x3c19eca0	0.009394795
124	0xbdb4215c	-0.08795425
125	0x3cb94a52	0.022618446
126	0x3d559fe1	0.052154426
127	0xbdbff142	-0.09372188
128	0xbe6ef28d	-0.23334713
129	0x3d3efd45	0.046628255
130	0xbdcbaf89	-0.0994559
131	0x3d85f9c1	0.065417774
132	0xbe2bfe6f	-0.16796277
133	0x3e58fc7b	0.21190064
134	0xbe5fa54d	-0.21840401
135	0xbe0a2c2a	-0.1349341
136	0x3dd5e952	0.10444893
137	0xbdc6445b	-0.096810065
138	0x3e33044e	0.17482111
139	0x3f0950dd	0.5363901
140	0xbd7b60ea	-0.06137172
141	0xbd9d76b0	-0.076886535
142	0x3ddd61b2	0.108096495
143	0x3daf2933	0.0855278
144	0x3d8e8e5e	0.06960748
145	0x3c1261f6	0.0089344885
146	0x3a8d0e4a	0.0010761705
147	0xbd843891	-0.06456102
148	0x3ce33a97	0.027737899
149	0xbd809fd9	-0.062804885
150	0x3e601384	0.21882445
151	0x3c8d3eeb	0.017241916
152	0x3e246bc1	0.1605673
153	0xbe4b210b	-0.19836824
154	0x3d8de40e	0.069282636
155	0xbceb8b27	-0.028752876
156	0x3e7150cd	0.2356598
157	0xbe09585c	-0.13412613
158	0xbd7b26e2	-0.06131638
159	0x3e716fec	0.23577851
160	0x3d659448	0.056049615
161	0xbe353dc5	-0.17699344
162	0x3dd8172d	0.105512954
163	0x3dbb50ff	0.09146308
164	0xbde18fdc	-0.11013767
165	0x3e09765e	0.1342406
166	0x3c9724ca	0.01845016
167	0x3cda6c98	0.02666311
168	0x3e30f4d5	0.17280896
169	0xbd6548af	-0.05597752
170	0xbd44b66b	-0.04802553
171	0xbc0ce8ea	-0.008600453
172	0x3df72384	0.12067321
173	0x3d39ed8e	0.045392565
174	0x3e073ee8	0.1320759
175	0xbe48c00d	-0.19604512
176	0xbdefe931	-0.117143996
177	0xbe6b7ed7	-0.22997604
178	0xbd44bf92	-0.04803426
179	0xb9d8bd5f	-0.00041339823
180	0xbdbcceda	-0.09219141
181	0xbe05bb9d	-0.1305985
182	0x3db7d071	0.08975304
183	0x3e0ae81b	0.13565104
184	0xbe895de4	-0.26829445
185	0xbe2a8506	-0.16652307
186	0x3c45200d	0.012031567
187	0xbdd51f26	-0.10406332
188	0x3e0202d6	0.12696394
189	0xbc94af29	-0.01814993
190	0xbdd86432	-0.10565986
191	0x3e055168	0.13019335
192	0xbd426304	-0.04745771
193	0x3de4cbcc	0.11171684
194	0xbe1de2f5	-0.15418608
195	0xbd5df8de	-0.054192416
196	0x3d0f4c37	0.034984794
197	0x3c95cd9d	0.01828652
198	0xbd2857f8	-0.04109952
199	0x3d58e052	0.052948304
200	0xbe58bb3f	-0.21165179
201	0xbd84d61b	-0.0648615
202	0xbe1eda01	-0.1551285
203	0xbe870999	-0.2637451
204	0x3dc90cf7	0.09816926
205	0xbe5197ff	-0.20468138
206	0xbe62c44c	-0.22145194
207	0xbe901bee	-0.2814631
208	0x3cfb918e	0.030709054
209	0xbe308f57	-0.1724218
210	0xbbd55b94	-0.006511161
211	0x3d1d9021	0.03846753
212	0xbe6858cc	-0.22690123
213	0x3e18b7e0	0.14913893
214	0x3e016ec2	0.12639907
215	0xbea8ca86	-0.32967013
216	0x3dcec287	0.10095697
217	0xbd9a446c	-0.07532582
218	0x3d92846d	0.071541645
219	0xbd391226	-0.045183323
220	0x3d074804	0.033027664
221	0x3df49e35	0.11944238
222	0xbe40396d	-0.18771906
223	0x3e40187b	0.18759339
224	0xbcdfe9a8	-0.027333096
225	0xbe444f0d	-0.1917078
226	0xbe289d0e	-0.16466162
227	0x3e44b95b	0.19211332
228	0x3db9bf9d	0.090697505
229	0xbd99882a	-0.07496674
230	0x3e3596a6	0.17733249
231	0x3d605e6e	0.054777555
232	0xbc7a23f3	-0.01526736
233	0xbd689baa	-0.056789078
234	0xbd6573a0	-0.05601847
235	0xba94b09a	-0.0011344135
236	0x3e228141	0.15869619
237	0xbe65676e	-0.22402737
238	0xbda4f18e	-0.080538854
239	0xbd062f9c	-0.032760248
240	0xbdfd164f	-0.12357771
241	0x3b22a385	0.0024816704
242	0xbe51ad95	-0.20476373
243	0x3e3ec80c	0.18631
244	0x3eaf89d7	0.3428485
245	0x3d8e3b39	0.069448896
246	0xbe65df96	-0.22448573
247	0xbe2101ac	-0.15723294
248	0xbd86cb90	-0.06581795
249	0xbdafdd30	-0.0858711
250	0xbd69f0f9	-0.057114575
251	0xbd80bbb1	-0.06285799
252	0x3d8378fe	0.06419562
253	0x3c840e97	0.016120238
254	0x3ef91991	0.48652318
255	0xbf05026e	-0.5195683

model.rnn.bias_ih_l0 f4 [160]
0	0x3e731e58	0.23742044
1	0x3dfac6c5	0.122449435
2	0x3e114fd8	0.14190614
3	0xbbbb6341	-0.005718619
4	0x3d0c5a1f	0.034265634
5	0x3dc72cbe	0.09725331
6	0x3e587bdf	0.21141003
7	0xbd0bbf49	-0.03411797
8	0x3d67071a	0.056403257
9	0xbd939fcd	-0.07208214
10	0x3d29cdb7	0.04145595
11	0x3cea7379	0.028619515
12	0xbd6562de	-0.05600249
13	0x3ea504cf	0.3223023
14	0x3e304bf5	0.17216475
15	0x3e5cb52d	0.21553488
16	0x3dfbcf2d	0.12295375
17	0x3dd023b9	0.101630636
18	0x3e39441f	0.18092392
19	0xbdc55ddc	-0.09637043
20	0xbaba565a	-0.0014216409
21	0x3e197d64	0.14989239
22	0x3cdb73e1	0.026788654
23	0x3e9b4f19	0.30333784
24	0x3e03bec0	0.12865734
25	0x3dd9d85a	0.10636969
26	0xbc525daf	-0.012839719
27	0x3dada925	0.084795274
28	0x3d94b69d	0.07261393
29	0x3e471cf7	0.19444643
30	0x3de13cd7	0.109979324
31	0x3d3f2856	0.046669327
32	0x3e5e9891	0.21737887
33	0x3e8bab47	0.27279112
34	0x3e88c8ec	0.2671579
35	0xbc9124fd	-0.017717833
36	0x3ea7485c	0.32672393
37	0xbe059290	-0.1304419
38	0x3e64af80	0.22332573
39	0x3e4279fa	0.18991843
40	0x3e2b044e	0.16700861
41	0xbdf6c3c4	-0.12049058
42	0x3d10be1f	0.035337564
43	0x3e4500d4	0.19238597
44	0xbe09d0f4	-0.13458616
45	0x3c1f2340	0.009712994
46	0x3d1b883e	0.037971728
47	0xbbe6341b	-0.0070252544
48	0x3de10538	0.109873235
49	0x3dc9fed7	0.0986306
50	0xbd67220a	-0.056428947
51	0x3dbcc8d5	0.09217993
52	0xbce923f9	-0.028459536
53	0x3e2eb04d	0.17059441
54	0x3e4f6a82	0.20255473
55	0xbd067105	-0.032822628
56	0xbd166139	-0.036713813
57	0x3e164677	0.14675318
58	0xbd659917	-0.0560542
59	0x3df88c58	0.121361434
60	0xbdafa1bf	-0.085757725
61	0xbca899eb	-0.020581206
62	0xbd860eb3	-0.065457724
63	0x3cb55f3d	0.02214014
64	0x3e1ede56	0.15514502
65	0x3cdd46e1	0.027011337
66	0xbdcfe49c	-0.10151026
67	0xbd8fd0c8	-0.07022244
68	0x3de44496	0.11145894
69	0x3cb60302	0.022218231
70	0x3d968005	0.073486365
71	0x3d336751	0.043799702
72	0x3e3c34dc	0.18379539
73	0x3b888382	0.0041660676
74	0xbdbf9445	-0.09354452
75	0x3e02b56e	0.12764522
76	0x3d38238c	0.044955775
77	0x3dd2d120	0.10293794
78	0xbdaca881	-0.08430577
79	0x3de6db18	0.112722576
80	0x3e0617d5	0.13095029
81	0x3c22f2a8	0.009945549
82	0xbde2873f	-0.110609524
83	0x3c75c5e3	0.015000793
84	0x3b98e5a2	0.0046660462
85	0xbd9a7bc2	-0.07543136
86	0x3dd4395c	0.10362503
87	0x3d28d9c4	0.041223302
88	0xbc1c671c	-0.009546068
89	0xbbb88bdc	-0.005631907
90	0xbe57a632	-0.21059492
91	0xbc678019	-0.014129662
92	0x3de6547e	0.11246584
93	0x3d17c528	0.037053257
94	0xbe09fe0d	-0.13475819
95	0xbc89ab83	-0.016805416
96	0x3d77a827	0.060463097
97	0x3cd13bb8	0.025541171
98	0x3e366aec	0.17814225
99	0x3e0f29d1	0.13980795
100	0x3db6d4df	0.08927321
101	0x3e82b2c8	0.25527024
102	0xbdc981f7	-0.09839242
103	0xbd99e491	-0.07514299
104	0x3c564966	0.013079023
105	0xbe2d8f73	-0.16949253
106	0x3d99395f	0.07481646
107	0x3dea723e	0.11447571
108	0x3d406bf1	0.04697794
109	0xbd3709fc	-0.044687256
110	0x3dbedad1	0.0931908
111	0xbe1469cc	-0.14493483
112	0x3e47fd3d	0.19530196
113	0xbd780cb2	-0.060558982
114	0xbca020a6	-0.019546818
115	0xbc2ee0c9	-0.01067371
116	0x3d3dda92	0.046351023
117	0xbdf3e4c5	-0.11908869
118	0xbd5293cc	-0.05141048
119	0xbdef2f0e	-0.11678897
120	0x3e5ebd4a	0.21751896
121	0x3e6087d6	0.21926817
122	0x3cb6c81e	0.02231222
123	0xbd589ee9	-0.052885924
124	0xbd036abc	-0.03208421
125	0xbc2b4ad1	-0.010454849
126	0xbd5592fd	-0.052142132
127	0x3ca0feda	0.019652773
128	0x3d2c4a1e	0.04206287
129	0xbe072315	-0.13196976
130	0x3e44a29b	0.19202654
131	0x3c933fc4	0.017974742
132	0x3e0e3b70	0.13889861
133	0xbe26976a	-0.16268697
134	0x3db77134	0.08957139
135	0x3e1078fa	0.14108649
136	0xbae49f3f	-0.0017442479
137	0x3def62f7	0.11688798
138	0xbc275f90	-0.010215655
139	0x3d3bcf85	0.045852203
140	0xbc857f12	-0.016295943
141	0x3d91850c	0.07105455
142	0x3e07e998	0.13272703
143	0x3ca231c8	0.019799128
144	0xbaa8004e	-0.0012817474
145	0xbd853f22	-0.06506182
146	0x3e215283	0.15754132
147	0xbdae8608	-0.08521658
148	0xbc4f26dc	-0.012643542
149	0xbd2def6e	-0.042464666
150	0x3e049552	0.12947586
151	0x3e3e503d	0.18585296
152	0x3e249203	0.16071324
153	0xbcdc0ccf	-0.026861576
154	0x3e3a60cd	0.18200989
155	0xbd8b444b	-0.06800135
156	0xbd977a57	-0.07396381
157	0x3d44b977	0.048028436
158	0x3d0731ca	0.033006467
159	0x3e3cf7b1	0.18453862

model.rnn.bias_hh_l0 f4 [160]
0	0x3e86614d	0.2624611
1	0x3db17fe4	0.08666971
2	0x3e261cfc	0.16221994
3	0x3e1e7dce	0.15477678
4	0xbdb4cc64	-0.08828047
5	0x3deaf665	0.11472777
6	0x3e913cb5	0.28366628
7	0xbd8f3e64	-0.06994322
8	0x3e841206	0.25795
9	0xbdffa1b3	-0.124820136
10	0xbb1d1bcc	-0.0023972867
11	0x3db4d72d	0.08830104
12	0x3d35e85f	0.04441106
13	0x3d8ffe05	0.07030872
14	0x3e30fc21	0.1728368
15	0x3e3128fc	0.1730079
16	0x3e22c506	0.15895471
17	0x3da6d71d	0.08146498
18	0x3e55d30c	0.20881289
19	0x3dbfceae	0.09365593
20	0x3df62c2c	0.12020144
21	0x3e8b9de9	0.27268913
22	0x3d502394	0.05081518
23	0x3e55f813	0.20895414
24	0x3df33d72	0.11876954
25	0x3d5bf0b1	0.053696338
26	0x3d3bca12	0.045847006
27	0x3d73b82f	0.059501823
28	0xbc9fe162	-0.01951665
29	0x3e3aa99b	0.18228762
30	0x3daba2f3	0.083806895
31	0x3c68c916	0.014208099
32	0x3ec65a44	0.38740742
33	0x3e305b78	0.17222393
34	0x3dd30ae0	0.103048086
35	0x3e24eceb	0.16106002
36	0x3d02a522	0.031895764
37	0x3d903e89	0.07043178
38	0x3df810a1	0.12112547
39	0x3ccc05d7	0.024905128
40	0x3e197022	0.14984182
41	0xbde7b040	-0.11312914
42	0xbe3cd83b	-0.1844186
43	0x3e5fb5f8	0.2184676
44	0xbdefe048	-0.117127
45	0xbcc77735	-0.024348835
46	0xbdc3532c	-0.09537348
47	0x3daa38dd	0.08311627
48	0x3e0a22cd	0.13489838
49	0x3dcb4e4f	0.099270456
50	0xbd70db44	-0.058802858
51	0x3e0c2a54	0.13688022
52	0xbe02c5fd	-0.12770839
53	0x3d8f6f14	0.07003608
54	0x3e51558e	0.20442793
55	0x3e104153	0.14087419
56	0x3de4a71f	0.11164688
57	0xbd307aa2	-0.0430857
58	0xbd7a8179	-0.06115863
59	0x3dcd5e1c	0.100277156
60	0x3d271039	0.040786956
61	0x3c4e2a9e	0.012583403
62	0x3d9eb910	0.077501416
63	0x3dc53c98	0.09630698
64	0xbd6b161b	-0.05739413
65	0x3d369ef8	0.0445852
66	0x3e23e15f	0.16003941
67	0xbdad6470	-0.084664226
68	0x3cf507d1	0.029910954
69	0xbcc1fe78	-0.02368091
70	0x3e09786a	0.1342484
71	0xbd0c74ec	-0.034291193
72	0x3d32eb97	0.043681707
73	0x3df1cb3b	0.11806341
74	0xbdd6232d	-0.10455928
75	0x3dfbd397	0.12296217
76	0x3df91451	0.12162078
77	0xbc37318b	-0.011181246
78	0xbe0fccca	-0.14042965
79	0xbe0a11f3	-0.1348341
80	0xbc0bcaab	-0.0085322065
81	0x3ded9792	0.11601175
82	0xbe340dc0	-0.1758337
83	0xbd06a14f	-0.03286868
84	0xbdd946d4	-0.106092125
85	0x3b93eb5b	0.0045141405
86	0xbdc1b063	-0.09457471
87	0x3dd507e2	0.10401894
88	0x3d5da92c	0.054116413
89	0x3dad0d66	0.08449821
90	0xbd8007ca	-0.06251486
91	0x3d4998d8	0.04921803
92	0xbe191da5	-0.14952715
93	0x3dc4ee60	0.09615779
94	0x3dfd0782	0.123549476
95	0xbda5704f	-0.08078062
96	0xbc02d510	-0.007985368
97	0xbcc67a91	-0.024228366
98	0x3e83c217	0.25734016
99	0x3e34ef1f	0.17669342
100	0x3d94f431	0.07273138
101	0x3cca3ec1	0.024688127
102	0x3daa6de2	0.0832174
103	0xbde67095	-0.11251942
104	0x3da4bcd4	0.080438286
105	0xbe279cef	-0.16368459
106	0xbdf8a8ac	-0.121415466
107	0xbd2c854f	-0.04211932
108	0x3d7fc0de	0.06243979
109	0x3c818844	0.015812047
110	0xbddc9d10	-0.10772145
111	0x3db1d7a2	0.08683707
112	0x3eb6cca8	0.35703015
113	0x3d1d3c3b	0.03838752
114	0x3d11a849	0.03556088
115	0xbd8dc772	-0.06922807
116	0x3ea0f244	0.31434834
117	0xbe0e155f	-0.1387534
118	0xbd91c631	-0.0711788
119	0x3d463620	0.04839146
120	0x3cd6e830	0.026233763
121	0x3e147a91	0.1449988
122	0x3d55a72c	0.05216138
123	0x3cb0cdae	0.02158245
124	0xbd9109c9	-0.070819445
125	0xbc4d5e75	-0.012534727
126	0x3cc8d88e	0.024517324
127	0xbd291da2	-0.041288026
128	0x3e4c2a4f	0.19938014
129	0xbc9cfa0c	-0.0191622
130	0xbdc39e60	-0.09551692
131	0x3dd0c43c	0.10193679
132	0x3e44d65c	0.19222397
133	0xbd5fa96e	-0.05460494
134	0xbe4f212d	-0.202275
135	0x3e8ba6d3	0.27275714
136	0x3e18338b	0.14863412
137	0x3deacb0d	0.1146451
138	0xbd9b2c14	-0.075767666
139	0x3df89024	0.12136868
140	0x3e4b7dd7	0.19872223
141	0x3e35343a	0.17695704
142	0xbd0c06ca	-0.034186162
143	0x3dfdefc7	0.123992495
144	0x3e436770	0.19082427
145	0xbcfcc629	-0.030856209
146	0x3d023d08	0.031796485
147	0x3d3484e2	0.04407204
148	0x3d9d08ae	0.07667671
149	0xbc4adac9	-0.012381264
150	0xbd861c09	-0.06548316
151	0x3cc9c1f7	0.024628622
152	0x3c995e7a	0.018721808
153	0x3e1336c5	0.14376362
154	0x3d7ac363	0.06122149
155	0x3df46dde	0.11935018
156	0x3e5085f5	0.203636
157	0xbde5560a	-0.11198051
158	0x3e0d3399	0.13789214
159	0x3c2b1293	0.01044144

model.rnn.weight_ih_l1 f4 [160, 40]
0	0xbdfa734d	-0.12229023
1	0x3f1d1b78	0.6137004
2	0xbecc43da	-0.39895517
3	0x3edd8afc	0.432701
4	0xbce4da4c	-0.027936123
5	0xbf50bac7	-0.81535
6	0xbf042061	-0.51611906
7	0xbdb2ebda	-0.08736391
8	0xbf3b98b5	-0.7327989
9	0xbd9140e5	-0.07092456
10	0xbebae784	-0.36504757
11	0x3d57d8c3	0.052696954
12	0xbeb8b230	-0.36073446
13	0x3d4f1b2f	0.050563034
14	0xbd030127	-0.03198352
15	0xbead59af	-0.33857486
16	0x3e39e386	0.181532
17	0xbf029b76	-0.51018465
18	0x3ef6f6b5	0.48235098
19	0xbdf87b62	-0.121329084
20	0xbe50acde	-0.20378444
21	0x3e9a7dae	0.3017401
22	0xbeb6cc57	-0.35702774
23	0x3e8235c8	0.25431657
24	0xbce49893	-0.027904784
25	0xbce5095c	-0.027958564
26	0xbe5299c0	-0.20566463
27	0x3f1098dd	0.5648325
28	0x3de7dab9	0.11321015
29	0xbf416455	-0.7554372
30	0x3e0c0557	0.13673912
31	0x3ebd896d	0.3701891
32	0x3e7eef40	0.24895954
33	0xbe8e4065	-0.27783504
34	0xbecba0f5	-0.39771238
35	0xbe7026d5	-0.23452313
36	0x3ec37a54	0.38179266
37	0xbddc5de3	-0.10760095
38	0x3cc267f0	0.023731202
39	0x3d9f0925	0.07765416
40	0xbddbc49b	-0.10730859
41	0xbd30d2d5	-0.043169815
42	0xbd8c477a	-0.068495706
43	0xbe7cc8af	-0.2468593
44	0x3e1787bb	0.14797871
45	0xbdf9e6a1	-0.12202192
46	0xbe015b6b	-0.1263253
47	0xbe920430	-0.2851882
48	0xbe1449f1	-0.14481331
49	0xbe916e31	-0.28404382
50	0xbe8743a5	-0.26418796
51	0xbe4d69fc	-0.20059961
52	0x3d5939de	0.053033702
53	0x3e5d90d2	0.21637276
54	0x3e46b30d	0.1940424
55	0xbdc63db5	-0.096797384
56	0x3de238d0	0.110459924
57	0x3db205b8	0.08692497
58	0x3e2ad400	0.16682434
59	0xbdfe34fe	-0.12412451
60	0xbe5a76b4	-0.21334344
61	0x3d9aaf57	0.07552975
62	0xbdeb9e41	-0.11504794
63	0xbcf66b6a	-0.030080516
64	0xbd7fed15	-0.06248196
65	0xbdf81b6c	-0.12114605
66	0xbdae2780	-0.08503628
67	0x3e555bf8	0.20835865
68	0x3dd75a67	0.1051529
69	0xbe3c08e6	-0.1836277
70	0x3e59463b	0.21218197
71	0xbd42ed22	-0.04758943
72	0x3e08b981	0.13352014
73	0xbdf9782f	-0.12181126
74	0xbca949af	-0.020665018
75	0xbd67e49f	-0.056614514
76	0xbc96f03e	-0.018425103
77	0xbe52e113	-0.20593672
78	0xbc64cabd	-0.013964352
79	0x3e2817b2	0.16415289
80	0xbde6fa45	-0.11278204
81	0xbefe7b85	-0.49703613
82	0xbec38688	-0.38188577
83	0xbead0de7	-0.3379967
84	0x3de5e130	0.11224592
85	0xbcead7ee	-0.028667416
86	0xbf50ac27	-0.81512684
87	0xbe138e12	-0.14409664
88	0xbeabd42a	-0.33560306
89	0x3e078e03	0.13237767
90	0xbe9ca45f	-0.30594155
91	0xbec66bb1	-0.38754037
92	0xbe7a50da	-0.24444905
93	0x3dddd95c	0.10832474
94	0x3e845f4c	0.25853956
95	0xbe7a5b9a	-0.24449006
96	0x3cee909f	0.029121695
97	0x3ee30ff7	0.44348118
98	0x3e00ec2c	0.12590092
99	0x3cf83c36	0.030302148
100	0xbe244a7c	-0.16044039
101	0x3e80e9a8	0.25178266
102	0xbeb5075c	-0.35357177
103	0x3d767847	0.0601733
104	0x3e17d84f	0.14828609
105	0xbd92a965	-0.07161216
106	0xbe189599	-0.14900817
107	0x3e522814	0.20523101
108	0x3e961f45	0.29320732
109	0x3e038d2f	0.12846826
110	0x3d03d5d5	0.032186348
111	0xbe255bb7	-0.16148268
112	0x3e25a7db	0.16177313
113	0xbe6a2c9a	-0.22868577
114	0xbe79da3c	-0.24399656
115	0xbd71acd3	-0.05900271
116	0x3da50317	0.0805723
117	0xbd21a056	-0.03945955
118	0xbeb745c9	-0.3579543
119	0x3e245be0	0.16050673
120	0xbd352f55	-0.044234592
121	0x3df28b3b	0.11842962
122	0xbdaa4a67	-0.08314972
123	0xbd38cfce	-0.045120053
124	0x3de4c797	0.11170881
125	0xbe8d03b7	-0.27541897
126	0xbe526ab1	-0.20548512
127	0xbdafe1a8	-0.085879624
128	0xbe6e05ef	-0.23244451
129	0x3d6536c2	0.055960424
130	0xbe715abf	-0.23569773
131	0xbcf96229	-0.030442314
132	0xbe961db0	-0.29319525
133	0x3e593b4a	0.21214023
134	0xbd062bf5	-0.032756764
135	0xbbfcfc9d	-0.0077205435
136	0xbc1b9b20	-0.009497434
137	0xbeaaba6b	-0.3334535
138	0x3de8aab5	0.11360685
139	0xbdd534d8	-0.1041047
140	0xbdb48118	-0.08813685
141	0x3d93c179	0.07214636
142	0xbe8527de	-0.2600698
143	0x3e8a684a	0.2703269
144	0xbd9a2656	-0.07526843
145	0xbe39e105	-0.18152244
146	0xbd4f9a2a	-0.05068413
147	0x3ea4c173	0.3217884
148	0x3dc1332f	0.094335906
149	0xbe291cd0	-0.16514897
150	0x3e7c2e7c	0.24627107
151	0x3e33d115	0.17560227
152	0x3e940cb6	0.28915948
153	0xbdddf497	-0.108376674
154	0xbe0d638d	-0.13807507
155	0xbe4b61ad	-0.19861479
156	0x3e53a73a	0.2066926
157	0xbe922be6	-0.28549117
158	0x3e234477	0.15944086
159	0xbd6b10db	-0.05738912
160	0xbe60cd58	-0.21953332
161	0x3e517efe	0.204586
162	0xbd74830b	-0.059695285
163	0xbda5909b	-0.08084222
164	0x3de3104e	0.11087094
165	0xbed6a2bc	-0.4192103
166	0xbe72eebd	-0.23723884
167	0xbe0e8d37	-0.13921057
168	0xbea9dac1	-0.33174708
169	0xbe57f64c	-0.21090049
170	0xbe7be547	-0.24599181
171	0x3c8351ef	0.01603028
172	0xbe255f8c	-0.1614973
173	0x3e762b2e	0.24039909
174	0xbdd23a22	-0.10264994
175	0xbe52a1a4	-0.20569474
176	0x3b7021a6	0.003664115
177	0xbe5915b0	-0.2119968
178	0x3e83c0a2	0.25732905
179	0xbc8f9b73	-0.017530179
180	0xbd5b0017	-0.053466883
181	0x3e3bdf62	0.18346933
182	0xbcfa0440	-0.030519605
183	0x3eafcc14	0.34335387
184	0x3da122ee	0.078679904
185	0xbe1b2ccd	-0.15153809
186	0xbd495c25	-0.04916014
187	0x3eac5509	0.33658627
188	0x3d9fdbbd	0.078055836
189	0xbe822e79	-0.2542608
190	0xbb8d3b86	-0.0043100743
191	0x3ee0ef5a	0.4393261
192	0x3e9fedc7	0.31236097
193	0xbe1fdb58	-0.15611017
194	0xbe8ea17b	-0.27857575
195	0xbe78dc10	-0.24302697
196	0x3ea0657e	0.31327432
197	0xbce84144	-0.028351434
198	0xbdc9d3b9	-0.09854836
199	0xbcd8105e	-0.026374992
200	0xbddd3755	-0.10801569
201	0xbd2b2215	-0.04178055
202	0xbe00829f	-0.12549828
203	0x3d3c77b9	0.046012614
204	0x3c8fcb67	0.017553044
205	0xbe1c0ed9	-0.15240039
206	0xbe6fbd91	-0.23412158
207	0xbd85b7a4	-0.06529167
208	0x3e91436a	0.28371745
209	0x3d229e96	0.03970202
210	0x3ca3c991	0.019993575
211	0xbd71c3b4	-0.059024528
212	0x3ba74b63	0.0051054223
213	0x3d60d125	0.054886956
214	0xbe7bb20c	-0.24579638
215	0xbe245482	-0.16047862
216	0x3d0938be	0.03350138
217	0xbdcd1283	-0.100132965
218	0xbe0edcaf	-0.13951372
219	0xbbcc8dff	-0.006242513
220	0xbe899568	-0.268718
221	0xbdaa6a9b	-0.08321115
222	0x3d5a5f7f	0.05331373
223	0x3cf31a39	0.02967559
224	0xbe01d0f7	-0.1267737
225	0x3dd61818	0.10453814
226	0x3af0a8f4	0.0018360899
227	0x3ca0496f	0.019566266
228	0xbd26ac61	-0.040691737
229	0x3cfa905b	0.030586412
230	0xbe29e931	-0.16592862
231	0x3d266c68	0.040630728
232	0xbd4faf3e	-0.050704233
233	0x3dc0f865	0.094223775
234	0x3dcd1869	0.100144215
235	0x3d137773	0.036002588
236	0x3ad950c4	0.0016579856
237	0xbe141a01	-0.14463045
238	0xbd8ae9e0	-0.06782889
239	0x3eaa2cac	0.33237207
240	0x3caba77b	0.020953884
241	0x3e9fb009	0.31188992
242	0xbdac30be	-0.08407734
243	0x3d4a9fd7	0.04946884
244	0xbac64db7	-0.0015129362
245	0xbe97c3dc	-0.29641616
246	0xbe904f9f	-0.28185746
247	0x3d030aa4	0.03199257
248	0xbea8b03b	-0.32946953
249	0xbe37c6b5	-0.17946894
250	0xbd53f028	-0.051742703
251	0xbe366ed4	-0.17815715
252	0xbea4e185	-0.32203308
253	0x3e27bca8	0.1638056
254	0x3cf4ce35	0.029883483
255	0xbe5b25c8	-0.21401131

model.rnn.weight_hh_l1 f4 [160, 40]
0	0xbe64547d	-0.22297855
1	0x3d50b77c	0.050956234
2	0x3d1da91f	0.038491365
3	0xbe6029da	-0.21890965
4	0x3d161a53	0.0366462
5	0xbe2e942a	-0.17048708
6	0xbe320bdb	-0.17387335
7	0x3d9bb05c	0.07601997
8	0x37e7ad88	2.7618153e-05
9	0xbc8b2de2	-0.016989652
10	0xbdd46ad0	-0.10371935
11	0x3e4b6113	0.1986125
12	0x3e0b75a6	0.13619098
13	0xbdbcc03f	-0.092163555
14	0x3deae212	0.11468901
15	0xbd955465	-0.072914876
16	0xbe57b5a1	-0.2106538
17	0xbdfb317a	-0.12265296
18	0xbdad348b	-0.084572874
19	0x3d9f6f3b	0.077848874
20	0x3d12d5e5	0.035848517
21	0x3e56a27a	0.20960417
22	0x3cde3b4f	0.02712789
23	0x3e37b57a	0.17940322
24	0xbe0659aa	-0.13120142
25	0xbdb97888	-0.09056193
26	0xbd0553cb	-0.032550614
27	0xbe1c9958	-0.15292871
28	0xbde33d3c	-0.11095664
29	0xbd90e114	-0.0707418
30	0x3d4ca132	0.049958415
31	0x3d2ba23a	0.04190276
32	0xbc677851	-0.014127807
33	0x3dfcd0b2	0.12344493
34	0xbe1b5667	-0.15169679
35	0x3d235127	0.039872315
36	0xbc9ac38f	-0.018892078
37	0x3e65908b	0.2241842
38	0xbda56ee4	-0.08077791
39	0xbcbf40d5	-0.023346344
40	0xbec24859	-0.37945822
41	0xbe12d729	-0.1433989
42	0xbe041721	-0.12899448
43	0xbec4b41b	-0.3841866
44	0x3e032122	0.12805608
45	0xbe022040	-0.12707615
46	0xbeb111f6	-0.34584016
47	0xbe338339	-0.17530526
48	0xbe5e5892	-0.21713474
49	0x3df3ab3c	0.11897895
50	0xbe071b77	-0.13194071
51	0x3df58624	0.11988476
52	0x3ec324c8	0.38114
53	0xbe0cdb12	-0.13755444
54	0xbd77fe67	-0.06054535
55	0xbeb4d167	-0.3531601
56	0xbec2d93b	-0.3805636
57	0xbebf78e0	-0.37396908
58	0x3e89630d	0.26833382
59	0xbe35a245	-0.17737682
60	0xbe9606a8	-0.29301953
61	0x3eacb5c7	0.33732435
62	0x3e2e3cbd	0.17015357
63	0xbe5e21e4	-0.21692616
64	0xbe3fa30c	-0.18714541
65	0x3cd79fff	0.02632141
66	0x3e049e3c	0.12950987
67	0xbe8ba27f	-0.27272412
68	0xbea1611c	-0.315194
69	0x3e049ce2	0.12950471
70	0x3e705b40	0.23472309
71	0x3eac4dfa	0.3365324
72	0x3e903d32	0.28171688
73	0x3e09dc09	0.13462843
74	0xbd6ae26c	-0.05734484
75	0x3e91a6f0	0.28447676
76	0xbecd34b3	-0.4007927
77	0x3e807710	0.25090837
78	0x3d527ae2	0.05138672
79	0xbe1ad32d	-0.1511962
80	0xbd9c3ed3	-0.0762917
81	0x3e53b0f9	0.20672978
82	0x3e5ca766	0.21548232
83	0x3dc96bf9	0.09835047
84	0x3e20f701	0.15719225
85	0xbd9fbddc	-0.07799885
86	0x3ccf6982	0.025318865
87	0xbdeca28c	-0.11554441
88	0xbcb6d0c0	-0.022316337
89	0x3da99caa	0.082818344
90	0xbd027d41	-0.031857733
91	0x3da558ed	0.08073602
92	0x3bd38870	0.0064554736
93	0xbe39b5f7	-0.1813582
94	0x3e3be519	0.18349113
95	0xbd9da996	-0.076983616
96	0xbe440b67	-0.19144975
97	0xbdb98fca	-0.09060629
98	0xbe178328	-0.14796126
99	0xbe41fd8c	-0.18944377
100	0x3e0b546a	0.1360642
101	0x3df7bb08	0.1209622
102	0xbddffe3a	-0.10937162
103	0xbdc8a110	-0.09796345
104	0xbe50fbb4	-0.20408517
105	0xbdbfb3cb	-0.09360465
106	0x3e4d3b32	0.20042112
107	0xbdaad783	-0.08341887
108	0xbe51a613	-0.20473509
109	0x3db82c0a	0.08992775
110	0x3c646839	0.013940864
111	0xbe00dd3b	-0.12584393
112	0xbdc6c8cc	-0.09706268
113	0x3d152761	0.036414508
114	0xbc788601	-0.015168668
115	0x3d83dc8d	0.06438551
116	0x3d918d4e	0.0710703
117	0x3dc3a449	0.09552819
118	0xbdaa4665	-0.08314208
119	0xbdbf9e65	-0.09356383
120	0x3d4893a6	0.048968934
121	0x3d7f43e7	0.062320616
122	0xbd706856	-0.058693253
123	0xbe366006	-0.17810068
124	0x3c659e4a	0.01401479
125	0xbe190045	-0.14941509
126	0xbcea52c0	-0.028603911
127	0x3db05afa	0.086111024
128	0x3defd90b	0.117113195
129	0x3dc40a69	0.09572298
130	0xbe2058a1	-0.15658809
131	0x3e29f3fc	0.16596979
132	0x3ddd7a0a	0.10814293
133	0xbd934a9a	-0.071919635
134	0x3e0d73b2	0.13813666
135	0xbd61af64	-0.055098906
136	0xbdeed777	-0.116621904
137	0xbd8c5242	-0.06851627
138	0x3e454598	0.19264829
139	0xbe3e21e1	-0.18567611
140	0xbdf2ed58	-0.11861676
141	0xbd9079f9	-0.070545144
142	0xbd1171e9	-0.035509024
143	0x3c9b9a1a	0.01899438
144	0xbd9b5755	-0.07585017
145	0x3d450a27	0.048105385
146	0xbdad3009	-0.084564276
147	0x3dc6331e	0.096777186
148	0xbdf8d70f	-0.12150394
149	0x3dbfdb5b	0.093680106
150	0xbd5bedcc	-0.053693578
151	0x3d8c9f34	0.06866303
152	0xbd9f4142	-0.07776119
153	0x3c946ef7	0.018119318
154	0xbe14833c	-0.14503187
155	0x3e23c105	0.159916
156	0xbe307126	-0.17230663
157	0x3dae00a8	0.08496219
158	0xbd99bcc2	-0.07506706
159	0xbd8fa338	-0.070135534
160	0x3dcda7d9	0.1004178
161	0xbdc88fbb	-0.097930394
162	0x3e3a401a	0.18188515
163	0xbd6b6881	-0.05747271
164	0x3e56e5bd	0.20986076
165	0x3dc7d597	0.09757536
166	0xbc26d99c	-0.010183718
167	0x3ced4186	0.028961908
168	0xbc801eb7	-0.015639646
169	0xbbb6717b	-0.005567727
170	0xbbf38179	-0.007431206
171	0xbca873d7	-0.02056305
172	0x3e2c4632	0.16823652
173	0xbc9fff3e	-0.019530889
174	0xbcdbc902	-0.026829246
175	0xbc67eebf	-0.014156043
176	0xbd3f2e1f	-0.046674844
177	0xbd56eba8	-0.052470833
178	0x3dcd1379	0.1001348
179	0xbe1fd719	-0.15609397
180	0xbe53dcba	-0.20689669
181	0xbdd6b6c3	-0.10484078
182	0xbd3e5b8f	-0.046474036
183	0xbdb337fb	-0.08750912
184	0xbd35caec	-0.044382975
185	0x3c3957d3	0.011312443
186	0x3e3b9de2	0.18321946
187	0xbd04de12	-0.032438345
188	0xbe316565	-0.17323835
189	0xbc9103cb	-0.017702004
190	0x3e2aa80d	0.16665669
191	0xbd78c8de	-0.060738437
192	0x3e1a4955	0.15067036
193	0x3c050abc	0.008120235
194	0xbe250dc0	-0.16118526
195	0x3d62007a	0.055176236
196	0x3d7ae85f	0.061256763
197	0x3d899e66	0.06719665
198	0xbdd20fe3	-0.102569364
199	0x3cf790f6	0.03022049
200	0x3cf4abdf	0.02986711
201	0xbde97796	-0.11399762
202	0xbde741b3	-0.11291828
203	0x3d019e2e	0.031644993
204	0x3d0a39c8	0.03374651
205	0x3cd99a46	0.026562821
206	0x3d8b41e6	0.067996785
207	0x3e0bae8c	0.13640803
208	0x3e8c8ac8	0.27449632
209	0xba9efcb6	-0.0012129757
210	0xbe004a27	-0.12528287
211	0x3e2061ad	0.1566226
212	0x3c7ed7ab	0.015554349
213	0x3dbd9a1e	0.09257911
214	0xbb096962	-0.0020967354
215	0x3cc6019d	0.024170691
216	0x3da7d804	0.081954986
217	0xbd100313	-0.03515918
218	0xbd3a2c51	-0.04545242
219	0xbcd246fc	-0.025668614
220	0xbd759af4	-0.059962228
221	0xbe4dc1a7	-0.20093404
222	0xbd2279bc	-0.039666876
223	0x3dd9ba32	0.10631217
224	0x3e283928	0.16428053
225	0xbe846f1f	-0.2586603
226	0xbe810d55	-0.25205484
227	0x3e156b4a	0.14591709
228	0x3dffea33	0.12495842
229	0xbd3a1742	-0.045432337
230	0xbe1c0085	-0.15234573
231	0xbde8db6a	-0.11369975
232	0xbc19481d	-0.009355572
233	0x3e303790	0.17208695
234	0xbdb48b3a	-0.08815618
235	0xbe0c5bb2	-0.13706854
236	0x3e5c61fd	0.21521755
237	0x3e956d1f	0.29184815
238	0xbe8861cc	-0.26637113
239	0x3d66eb81	0.056376938
240	0x3d2e8bd6	0.042613827
241	0x3c8bb965	0.017056176
242	0x3d8ef809	0.06980903
243	0xbc6e8dd9	-0.014560186
244	0x3ca4172f	0.020030586
245	0xbdddf146	-0.10837035
246	0x3d63f856	0.055656753
247	0x3d163686	0.03667309
248	0x3df3a973	0.11897554
249	0x3e2f0e8d	0.17095394
250	0x3d946411	0.07245649
251	0x3c14650f	0.009057297
252	0x3d8de85b	0.06929084
253	0xbcd0c456	-0.025484245
254	0xbe13c635	-0.14431079
255	0x3b30d213	0.0026980683

model.rnn.bias_ih_l1 f4 [160]
0	0x3e92132d	0.28530255
1	0x3c3db819	0.011579537
2	0x3b690550	0.0035556145
3	0x3e938757	0.28814194
4	0x3e320f8b	0.17388742
5	0xbd4ada81	-0.049524788
6	0x3e5b4323	0.2141233
7	0xbd8046b2	-0.06263484
8	0xbd253c1c	-0.040340528
9	0x3e8fb0f6	0.28064698
10	0xbe076850	-0.13223386
11	0x3d501f13	0.050810885
12	0x3e6d3cb0	0.23167682
13	0x3ded576d	0.11588941
14	0x3cc9848f	0.024599342
15	0x3e98480b	0.29742464
16	0x3d5c2c85	0.053753395
17	0x3e41a494	0.18910438
18	0xbc223476	-0.009900203
19	0x3dc5a9c4	0.09651521
20	0x3e777fab	0.24169795
21	0xbad87088	-0.0016513029
22	0x3e4f4108	0.20239651
23	0x3d9f6f7d	0.077849366
24	0x3e3eda6a	0.18638006
25	0xbdf8dbe2	-0.12151314
26	0x3e25ed2a	0.16203752
27	0xbdb57803	-0.08860781
28	0x3d2ea053	0.042633366
29	0xbdd142f1	-0.10217846
30	0xbb1f7ac8	-0.0024334658
31	0xbd8c66ca	-0.06855543
32	0x3ee251a7	0.4420292
33	0x3e00f37d	0.12592883
34	0x3ddd4787	0.108046584
35	0x3e037591	0.12837817
36	0x3d9459dd	0.072437026
37	0xbd4a64fb	-0.04941271
38	0x3cd69bdc	0.026197366
39	0x3b2b757c	0.0026162555
40	0x3e348ec1	0.17632581
41	0x3cb45008	0.022010818
42	0xbe03e290	-0.12879395
43	0x3e08572c	0.13314503
44	0xbd24d8ef	-0.040245946
45	0x3e541f28	0.2071501
46	0x3e4f9f20	0.20275545
47	0x3e1f1e51	0.15538909
48	0xbc3080fd	-0.010772941
49	0x3d76f195	0.060288984
50	0x3d7f9784	0.062400356
51	0x3d402ded	0.0469188
52	0x3e29f2cb	0.16596524
53	0x3e618834	0.22024614
54	0xbd77bf73	-0.060485315
55	0x3de31992	0.110888615
56	0x3e2912b9	0.16511048
57	0xbc2038ec	-0.009779196
58	0x3e3420cd	0.17590638
59	0x3d2f4f8c	0.04280047
60	0x3e1bdb4f	0.15220378
61	0xbd5d0f34	-0.053969577
62	0x3e4f15c5	0.20223148
63	0xbd644351	-0.05572826
64	0xbd5aa6f4	-0.053381875
65	0xbdec2f78	-0.115324914
66	0xbd91249c	-0.07087061
67	0xbe124d8b	-0.14287393
68	0x3d9f1f2a	0.07769616
69	0xbdffc974	-0.12489596
70	0x3e4a2ec5	0.19744404
71	0x3d9bad25	0.07601384
72	0x3d02501b	0.031814676
73	0xbc1d68da	-0.009607518
74	0xbd703be1	-0.058650855
75	0x3e34c758	0.17654169
76	0xbd9c2d47	-0.076258235
77	0x3e20304a	0.15643421
78	0xbd5fec2c	-0.05466859
79	0x3e05ae66	0.13054809
80	0xbddacac8	-0.10683209
81	0x3d33a25a	0.043856002
82	0xbc4e8b54	-0.012606461
83	0xbe327c8f	-0.17430328
84	0x3e53d4d0	0.2068665
85	0xbd490431	-0.049076263
86	0xbd6ef9a9	-0.058343563
87	0x3a89803e	0.001049049
88	0xbdcca77c	-0.099928826
89	0x3de27070	0.11056602
90	0xbd054b5f	-0.032542583
91	0x3e136883	0.14395337
92	0x3dfd23bc	0.123603314
93	0x3a19a825	0.00058615423
94	0xbc1d6fd4	-0.009609181
95	0xbc314177	-0.010818831
96	0xbd4ac044	-0.049499765
97	0xbd3a1192	-0.045426913
98	0x3e13dee9	0.14440502
99	0xbe587f67	-0.2114235
100	0xbe17a9d4	-0.14810878
101	0x3e44452f	0.19167016
102	0xbc75ffbd	-0.015014586
103	0xbd49b425	-0.049244065
104	0x3af39f77	0.0018586953
105	0xbde764ee	-0.11298548
106	0x3e005150	0.12531018
107	0xbdd9ab80	-0.10628414
108	0xbd9c9161	-0.07644916
109	0x3d9b69ec	0.07588562
110	0x3e2556a9	0.1614634
111	0x3ce9cd97	0.028540416
112	0x3b984a62	0.004647539
113	0x3d2f91d9	0.0428637
114	0xbd5e184f	-0.0542224
115	0x3e11c10c	0.14233798
116	0xbd1f1f67	-0.038848307
117	0xbda48278	-0.080326974
118	0xbe39acc1	-0.18132307
119	0xbe5c823f	-0.2153406
120	0x3e5a432a	0.21314684
121	0x3e30e469	0.17274632
122	0x3d977a3e	0.07396363
123	0xbd6f6b46	-0.058451913
124	0x3dbf3241	0.09335757
125	0xbd6a1134	-0.057145312
126	0x3d6e6b48	0.05820778
127	0xbdfb35e8	-0.12266141
128	0xbd4b28bb	-0.04959939
129	0x3e2692d3	0.16266946
130	0x3dc70bdf	0.09719061
131	0x3dcfe439	0.10150952
132	0x3e1b676b	0.1517617
133	0x3e13f17a	0.14447585
134	0x3e656b64	0.22404248
135	0x3e0e775f	0.13912724
136	0x3d93e654	0.07221666
137	0x3d130bda	0.035899974
138	0xbdba5518	-0.090982616
139	0xbd9ddef6	-0.07708542
140	0xbcadc14e	-0.021210339
141	0x3cd9169e	0.026500043
142	0x3e408b46	0.18803129
143	0x3d5348a5	0.05158295
144	0x3e6e349c	0.23262256
145	0x3d2e3cd3	0.042538475
146	0x3d1d4052	0.03839142
147	0xbda4b003	-0.08041384
148	0x3e30c1f1	0.17261483
149	0x3dce86a3	0.10084274
150	0x3cffa9ec	0.031208955
151	0x3de26b2c	0.11055598
152	0x3cbacc45	0.022802481
153	0x3d517962	0.05114115
154	0x3d82f3f9	0.0639419
155	0x3e48a2ee	0.19593403
156	0xbd80297a	-0.06257911
157	0x3dfdd638	0.123943746
158	0xbcf630d0	-0.030052572
159	0x3ea9c233	0.33155975

model.rnn.bias_hh_l1 f4 [160]
0	0x3e243d52	0.16039017
1	0x3e0e3d88	0.1389066
2	0x3da51fbf	0.08062696
3	0x3db5872c	0.088636726
4	0x3e6c72ba	0.2309064
5	0x3d516f1d	0.051131357
6	0x3df511e5	0.11966304
7	0xbd5f1ef5	-0.054472882
8	0xbc142be2	-0.009043666
9	0x3e11711b	0.14203303
10	0xbe0f8270	-0.14014602
11	0x3b368f37	0.0027856359
12	0x3ebd4d72	0.3697315
13	0x3eabb967	0.33539888
14	0x3df099bc	0.117480725
15	0x3e3da270	0.18518996
16	0xbd47a1eb	-0.0487384
17	0x3d409f97	0.047027197
18	0x3dcea97c	0.1009092
19	0xbdc62b39	-0.09676213
20	0x3e08aa2c	0.13346165
21	0x3e84f66c	0.25969255
22	0x3c62bae9	0.013838508
23	0xbd9d75ef	-0.0768851
24	0x3e8f6d02	0.28012854
25	0x3dc7e64c	0.097607225
26	0xbcc5f488	-0.024164453
27	0x3e4814d5	0.19539197
28	0x3e67898a	0.2261106
29	0xbd0b31cc	-0.033983037
30	0x3e4dfdd6	0.20116362
31	0xbdbbaaaa	-0.09163411
32	0x3ed51db8	0.41624236
33	0x3d2cb3b0	0.04216355
34	0x3ba6afe8	0.0050868876
35	0x3db819a2	0.08989264
36	0x3e6fc469	0.23414768
37	0x3d81aab4	0.06331387
38	0x3d84c6dc	0.06483242
39	0xbcb71467	-0.022348596
40	0xbd45dc14	-0.048305586
41	0xbd8c66e5	-0.06855563
42	0x3e291929	0.16513504
43	0x3d50e06b	0.05099527
44	0x3d4fa253	0.050691914
45	0x3d8a5401	0.06754304
46	0x3e159fb9	0.1461171
47	0x3e28ddb4	0.16490823
48	0x3cd8fdc4	0.026488192
49	0x3db8deac	0.09026846
50	0x3e534624	0.20632225
51	0xbd26e5ef	-0.040746626
52	0x3db10daf	0.08645188
53	0xbd718fed	-0.05897515
54	0x3d8b8ed0	0.06814349
55	0x3dcfe09b	0.10150262
56	0x3d8bcea6	0.068265244
57	0x3d58a144	0.05288817
58	0xbb2af2ea	-0.002608473
59	0x3dbfc040	0.09362841
60	0x3cc8ca2a	0.024510462
61	0x3dd782e4	0.10523012
62	0x3e26867c	0.16262239
63	0x3cf7d690	0.030253679
64	0x3e36024c	0.17774314
65	0xbe051189	-0.1299497
66	0x3e041bcf	0.12901233
67	0xbde0df8c	-0.10980138
68	0x3d1d049f	0.038334485
69	0xbd8fb8b0	-0.07017648
70	0x3ced052c	0.02893313
71	0x3cc42ddd	0.02394765
72	0xbd95ef9e	-0.07321094
73	0x3e18dd1f	0.14928101
74	0xbc84049b	-0.016115477
75	0xbd843193	-0.06454768
76	0x3d619ebf	0.055083033
77	0xbd949f31	-0.07256926
78	0x3e655f8b	0.22399728
79	0x3c8f4b46	0.017491948
80	0xbe649bf6	-0.2232512
81	0x3c10349f	0.008801608
82	0x3e5bc40c	0.21461505
83	0xbde2eed8	-0.11080712
84	0x3e0cf394	0.13764793
85	0xbe1362f7	-0.14393221
86	0xbc003743	-0.007825675
87	0x3ced600d	0.028976465
88	0x3c592360	0.013253063
89	0xbb0bc6f0	-0.0021328293
90	0xbd029eb7	-0.031889644
91	0x3e5f183b	0.21786587
92	0xbd09181d	-0.03347026
93	0xbde8e269	-0.11371309
94	0x3e2da0ab	0.16955821
95	0xbe949dba	-0.29026586
96	0xbdcf63ab	-0.10126432
97	0xbe7d2de4	-0.24724537
98	0xbcfaa173	-0.030594563
99	0xbe477831	-0.19479443
100	0xbdea61f3	-0.114444636
101	0x3dcfb789	0.101424284
102	0x3e272b4a	0.16325107
103	0xbcac3eb5	-0.021025995
104	0xbe626a11	-0.22110774
105	0xbd6654d9	-0.05623326
106	0x3de39455	0.111122765
107	0xbd8ff72a	-0.07029565
108	0xbe486bd2	-0.1957238
109	0x3daa6e9b	0.083218776
110	0x3e702a45	0.23453625
111	0x3dd0fc34	0.10204354
112	0x3dcec689	0.10096461
113	0xbc123753	-0.008924323
114	0xbe523db7	-0.20531355
115	0x3da2ac70	0.07943046
116	0xbe063ab5	-0.13108332
117	0x3e171576	0.1475428
118	0xbb93d3d7	-0.0045113373
119	0xbd23f2fd	-0.040026654
120	0x3e2ba237	0.16761099
121	0x3e023ab3	0.12717704
122	0xbd92c208	-0.07165915
123	0x3dc6e429	0.09711487
124	0x3d26220f	0.040559825
125	0x3e6bd037	0.23028646
126	0x3d4e3ec8	0.05035284
127	0x3def62ec	0.1168879
128	0x3db4a63b	0.088207684
129	0x3e4eda8e	0.2020056
130	0xbc03549e	-0.00801578
131	0x3d47a033	0.048736762
132	0x3d6df0a1	0.05809081
133	0x3dabb237	0.08383601
134	0x3ba58d1e	0.005052223
135	0x3e74f395	0.23921044
136	0xbd7d3f47	-0.061827924
137	0x3e6c1c35	0.23057635
138	0xbd2ab9a0	-0.041680932
139	0x3de935fd	0.113872506
140	0x3d62965c	0.055319175
141	0x3dd04d2d	0.1017097
142	0x3c0fa27a	0.008766765
143	0x3d1293f2	0.035785623
144	0x3e904b80	0.28182602
145	0x3db8c193	0.09021296
146	0xbd1afc44	-0.037838235
147	0x3d85960d	0.065227605
148	0x3c654677	0.013993851
149	0xbe0177af	-0.12643312
150	0x3e2ca231	0.16858746
151	0x3c1260cf	0.008934214
152	0x3e88bf65	0.26708522
153	0x3e0ec668	0.13942873
154	0x3e460605	0.19338234
155	0x3e1c9409	0.15290846
156	0x3e673675	0.22579367
157	0x3d98b704	0.074567825
158	0xbdd64bf1	-0.104637034
159	0x3e4901ac	0.19629544
